program(1.0)
[buildInfo = dict<tensor<string, []>, tensor<string, []>>({{"coremlc-component-MIL", "3520.4.1"}, {"coremlc-version", "3520.5.1"}, {"coremltools-component-torch", "2.8.0"}, {"coremltools-source-dialect", "TorchScript"}, {"coremltools-version", "9.0"}})]
{
    func main<ios17>(tensor<fp32, [1, 3, 256, 256]> image) {
            tensor<fp32, []> image__scaled___y_0 = const()[name = tensor<string, []>("image__scaled___y_0"), val = tensor<fp32, []>(0x1.010102p-8)];
            tensor<fp32, [1, 3, 256, 256]> image__scaled__ = mul(x = image, y = image__scaled___y_0)[name = tensor<string, []>("image__scaled__")];
            tensor<string, []> image_to_fp16_dtype_0 = const()[name = tensor<string, []>("image_to_fp16_dtype_0"), val = tensor<string, []>("fp16")];
            tensor<fp16, [1, 3, 1, 1]> Constant_0_value_to_fp16 = const()[name = tensor<string, []>("Constant_0_value_to_fp16"), val = tensor<fp16, [1, 3, 1, 1]>([[[[0x1.f0cp-2]], [[0x1.d3p-2]], [[0x1.9fcp-2]]]])];
            tensor<fp16, [1, 3, 256, 256]> image_to_fp16 = cast(dtype = image_to_fp16_dtype_0, x = image__scaled__)[name = tensor<string, []>("cast_3")];
            tensor<fp16, [1, 3, 256, 256]> first_1_cast_fp16 = sub(x = image_to_fp16, y = Constant_0_value_to_fp16)[name = tensor<string, []>("first_1_cast_fp16")];
            tensor<fp16, [1, 3, 1, 1]> _inversed_input_1_y_0_to_fp16 = const()[name = tensor<string, []>("_inversed_input_1_y_0_to_fp16"), val = tensor<fp16, [1, 3, 1, 1]>([[[[0x1.178p+2]], [[0x1.1dcp+2]], [[0x1.1c8p+2]]]])];
            tensor<fp16, [1, 3, 256, 256]> _inversed_input_1_cast_fp16 = mul(x = first_1_cast_fp16, y = _inversed_input_1_y_0_to_fp16)[name = tensor<string, []>("_inversed_input_1_cast_fp16")];
            tensor<int32, [8]> input_3_pad_0 = const()[name = tensor<string, []>("input_3_pad_0"), val = tensor<int32, [8]>([0, 0, 0, 0, 0, 1, 0, 1])];
            tensor<string, []> input_3_mode_0 = const()[name = tensor<string, []>("input_3_mode_0"), val = tensor<string, []>("constant")];
            tensor<fp16, []> const_0_to_fp16 = const()[name = tensor<string, []>("const_0_to_fp16"), val = tensor<fp16, []>(0x0p+0)];
            tensor<fp16, [1, 3, 257, 257]> input_3_cast_fp16 = pad(constant_val = const_0_to_fp16, mode = input_3_mode_0, pad = input_3_pad_0, x = _inversed_input_1_cast_fp16)[name = tensor<string, []>("input_3_cast_fp16")];
            tensor<string, []> input_5_pad_type_0 = const()[name = tensor<string, []>("input_5_pad_type_0"), val = tensor<string, []>("valid")];
            tensor<int32, [2]> input_5_strides_0 = const()[name = tensor<string, []>("input_5_strides_0"), val = tensor<int32, [2]>([2, 2])];
            tensor<int32, [4]> input_5_pad_0 = const()[name = tensor<string, []>("input_5_pad_0"), val = tensor<int32, [4]>([0, 0, 0, 0])];
            tensor<int32, [2]> input_5_dilations_0 = const()[name = tensor<string, []>("input_5_dilations_0"), val = tensor<int32, [2]>([1, 1])];
            tensor<int32, []> input_5_groups_0 = const()[name = tensor<string, []>("input_5_groups_0"), val = tensor<int32, []>(1)];
            tensor<fp16, [32, 3, 3, 3]> const_5_to_fp16 = const()[name = tensor<string, []>("const_5_to_fp16"), val = tensor<fp16, [32, 3, 3, 3]>(BLOBFILE(path = tensor<string, []>("@model_path/weights/weight.bin"), offset = tensor<uint64, []>(64)))];
            tensor<fp16, [32]> const_6_to_fp16 = const()[name = tensor<string, []>("const_6_to_fp16"), val = tensor<fp16, [32]>(BLOBFILE(path = tensor<string, []>("@model_path/weights/weight.bin"), offset = tensor<uint64, []>(1856)))];
            tensor<fp16, [1, 32, 128, 128]> input_7_cast_fp16 = conv(bias = const_6_to_fp16, dilations = input_5_dilations_0, groups = input_5_groups_0, pad = input_5_pad_0, pad_type = input_5_pad_type_0, strides = input_5_strides_0, weight = const_5_to_fp16, x = input_3_cast_fp16)[name = tensor<string, []>("input_7_cast_fp16")];
            tensor<fp16, []> input_9_alpha_0_to_fp16 = const()[name = tensor<string, []>("input_9_alpha_0_to_fp16"), val = tensor<fp16, []>(0x0p+0)];
            tensor<fp16, []> input_9_beta_0_to_fp16 = const()[name = tensor<string, []>("input_9_beta_0_to_fp16"), val = tensor<fp16, []>(0x1.8p+2)];
            tensor<fp16, [1, 32, 128, 128]> input_9_cast_fp16 = clip(alpha = input_9_alpha_0_to_fp16, beta = input_9_beta_0_to_fp16, x = input_7_cast_fp16)[name = tensor<string, []>("input_9_cast_fp16")];
            tensor<string, []> input_11_pad_type_0 = const()[name = tensor<string, []>("input_11_pad_type_0"), val = tensor<string, []>("custom")];
            tensor<int32, [4]> input_11_pad_0 = const()[name = tensor<string, []>("input_11_pad_0"), val = tensor<int32, [4]>([1, 1, 1, 1])];
            tensor<int32, []> input_11_groups_0 = const()[name = tensor<string, []>("input_11_groups_0"), val = tensor<int32, []>(32)];
            tensor<int32, [2]> input_11_strides_0 = const()[name = tensor<string, []>("input_11_strides_0"), val = tensor<int32, [2]>([1, 1])];
            tensor<int32, [2]> input_11_dilations_0 = const()[name = tensor<string, []>("input_11_dilations_0"), val = tensor<int32, [2]>([1, 1])];
            tensor<fp16, [32, 1, 3, 3]> const_7_to_fp16 = const()[name = tensor<string, []>("const_7_to_fp16"), val = tensor<fp16, [32, 1, 3, 3]>(BLOBFILE(path = tensor<string, []>("@model_path/weights/weight.bin"), offset = tensor<uint64, []>(1984)))];
            tensor<fp16, [32]> const_8_to_fp16 = const()[name = tensor<string, []>("const_8_to_fp16"), val = tensor<fp16, [32]>(BLOBFILE(path = tensor<string, []>("@model_path/weights/weight.bin"), offset = tensor<uint64, []>(2624)))];
            tensor<fp16, [1, 32, 128, 128]> input_13_cast_fp16 = conv(bias = const_8_to_fp16, dilations = input_11_dilations_0, groups = input_11_groups_0, pad = input_11_pad_0, pad_type = input_11_pad_type_0, strides = input_11_strides_0, weight = const_7_to_fp16, x = input_9_cast_fp16)[name = tensor<string, []>("input_13_cast_fp16")];
            tensor<fp16, []> input_15_alpha_0_to_fp16 = const()[name = tensor<string, []>("input_15_alpha_0_to_fp16"), val = tensor<fp16, []>(0x0p+0)];
            tensor<fp16, []> input_15_beta_0_to_fp16 = const()[name = tensor<string, []>("input_15_beta_0_to_fp16"), val = tensor<fp16, []>(0x1.8p+2)];
            tensor<fp16, [1, 32, 128, 128]> input_15_cast_fp16 = clip(alpha = input_15_alpha_0_to_fp16, beta = input_15_beta_0_to_fp16, x = input_13_cast_fp16)[name = tensor<string, []>("input_15_cast_fp16")];
            tensor<string, []> input_17_pad_type_0 = const()[name = tensor<string, []>("input_17_pad_type_0"), val = tensor<string, []>("valid")];
            tensor<int32, [2]> input_17_strides_0 = const()[name = tensor<string, []>("input_17_strides_0"), val = tensor<int32, [2]>([1, 1])];
            tensor<int32, [4]> input_17_pad_0 = const()[name = tensor<string, []>("input_17_pad_0"), val = tensor<int32, [4]>([0, 0, 0, 0])];
            tensor<int32, [2]> input_17_dilations_0 = const()[name = tensor<string, []>("input_17_dilations_0"), val = tensor<int32, [2]>([1, 1])];
            tensor<int32, []> input_17_groups_0 = const()[name = tensor<string, []>("input_17_groups_0"), val = tensor<int32, []>(1)];
            tensor<fp16, [24, 32, 1, 1]> const_9_to_fp16 = const()[name = tensor<string, []>("const_9_to_fp16"), val = tensor<fp16, [24, 32, 1, 1]>(BLOBFILE(path = tensor<string, []>("@model_path/weights/weight.bin"), offset = tensor<uint64, []>(2752)))];
            tensor<fp16, [24]> const_10_to_fp16 = const()[name = tensor<string, []>("const_10_to_fp16"), val = tensor<fp16, [24]>(BLOBFILE(path = tensor<string, []>("@model_path/weights/weight.bin"), offset = tensor<uint64, []>(4352)))];
            tensor<fp16, [1, 24, 128, 128]> input_19_cast_fp16 = conv(bias = const_10_to_fp16, dilations = input_17_dilations_0, groups = input_17_groups_0, pad = input_17_pad_0, pad_type = input_17_pad_type_0, strides = input_17_strides_0, weight = const_9_to_fp16, x = input_15_cast_fp16)[name = tensor<string, []>("input_19_cast_fp16")];
            tensor<string, []> input_21_pad_type_0 = const()[name = tensor<string, []>("input_21_pad_type_0"), val = tensor<string, []>("valid")];
            tensor<int32, [2]> input_21_strides_0 = const()[name = tensor<string, []>("input_21_strides_0"), val = tensor<int32, [2]>([1, 1])];
            tensor<int32, [4]> input_21_pad_0 = const()[name = tensor<string, []>("input_21_pad_0"), val = tensor<int32, [4]>([0, 0, 0, 0])];
            tensor<int32, [2]> input_21_dilations_0 = const()[name = tensor<string, []>("input_21_dilations_0"), val = tensor<int32, [2]>([1, 1])];
            tensor<int32, []> input_21_groups_0 = const()[name = tensor<string, []>("input_21_groups_0"), val = tensor<int32, []>(1)];
            tensor<fp16, [144, 24, 1, 1]> const_11_to_fp16 = const()[name = tensor<string, []>("const_11_to_fp16"), val = tensor<fp16, [144, 24, 1, 1]>(BLOBFILE(path = tensor<string, []>("@model_path/weights/weight.bin"), offset = tensor<uint64, []>(4480)))];
            tensor<fp16, [144]> const_12_to_fp16 = const()[name = tensor<string, []>("const_12_to_fp16"), val = tensor<fp16, [144]>(BLOBFILE(path = tensor<string, []>("@model_path/weights/weight.bin"), offset = tensor<uint64, []>(11456)))];
            tensor<fp16, [1, 144, 128, 128]> input_23_cast_fp16 = conv(bias = const_12_to_fp16, dilations = input_21_dilations_0, groups = input_21_groups_0, pad = input_21_pad_0, pad_type = input_21_pad_type_0, strides = input_21_strides_0, weight = const_11_to_fp16, x = input_19_cast_fp16)[name = tensor<string, []>("input_23_cast_fp16")];
            tensor<fp16, []> input_25_alpha_0_to_fp16 = const()[name = tensor<string, []>("input_25_alpha_0_to_fp16"), val = tensor<fp16, []>(0x0p+0)];
            tensor<fp16, []> input_25_beta_0_to_fp16 = const()[name = tensor<string, []>("input_25_beta_0_to_fp16"), val = tensor<fp16, []>(0x1.8p+2)];
            tensor<fp16, [1, 144, 128, 128]> input_25_cast_fp16 = clip(alpha = input_25_alpha_0_to_fp16, beta = input_25_beta_0_to_fp16, x = input_23_cast_fp16)[name = tensor<string, []>("input_25_cast_fp16")];
            tensor<int32, [8]> input_27_pad_0 = const()[name = tensor<string, []>("input_27_pad_0"), val = tensor<int32, [8]>([0, 0, 0, 0, 0, 1, 0, 1])];
            tensor<string, []> input_27_mode_0 = const()[name = tensor<string, []>("input_27_mode_0"), val = tensor<string, []>("constant")];
            tensor<fp16, []> const_1_to_fp16 = const()[name = tensor<string, []>("const_1_to_fp16"), val = tensor<fp16, []>(0x0p+0)];
            tensor<fp16, [1, 144, 129, 129]> input_27_cast_fp16 = pad(constant_val = const_1_to_fp16, mode = input_27_mode_0, pad = input_27_pad_0, x = input_25_cast_fp16)[name = tensor<string, []>("input_27_cast_fp16")];
            tensor<string, []> input_29_pad_type_0 = const()[name = tensor<string, []>("input_29_pad_type_0"), val = tensor<string, []>("valid")];
            tensor<int32, [2]> input_29_strides_0 = const()[name = tensor<string, []>("input_29_strides_0"), val = tensor<int32, [2]>([2, 2])];
            tensor<int32, []> input_29_groups_0 = const()[name = tensor<string, []>("input_29_groups_0"), val = tensor<int32, []>(144)];
            tensor<int32, [4]> input_29_pad_0 = const()[name = tensor<string, []>("input_29_pad_0"), val = tensor<int32, [4]>([0, 0, 0, 0])];
            tensor<int32, [2]> input_29_dilations_0 = const()[name = tensor<string, []>("input_29_dilations_0"), val = tensor<int32, [2]>([1, 1])];
            tensor<fp16, [144, 1, 3, 3]> const_13_to_fp16 = const()[name = tensor<string, []>("const_13_to_fp16"), val = tensor<fp16, [144, 1, 3, 3]>(BLOBFILE(path = tensor<string, []>("@model_path/weights/weight.bin"), offset = tensor<uint64, []>(11840)))];
            tensor<fp16, [144]> const_14_to_fp16 = const()[name = tensor<string, []>("const_14_to_fp16"), val = tensor<fp16, [144]>(BLOBFILE(path = tensor<string, []>("@model_path/weights/weight.bin"), offset = tensor<uint64, []>(14528)))];
            tensor<fp16, [1, 144, 64, 64]> input_31_cast_fp16 = conv(bias = const_14_to_fp16, dilations = input_29_dilations_0, groups = input_29_groups_0, pad = input_29_pad_0, pad_type = input_29_pad_type_0, strides = input_29_strides_0, weight = const_13_to_fp16, x = input_27_cast_fp16)[name = tensor<string, []>("input_31_cast_fp16")];
            tensor<fp16, []> input_33_alpha_0_to_fp16 = const()[name = tensor<string, []>("input_33_alpha_0_to_fp16"), val = tensor<fp16, []>(0x0p+0)];
            tensor<fp16, []> input_33_beta_0_to_fp16 = const()[name = tensor<string, []>("input_33_beta_0_to_fp16"), val = tensor<fp16, []>(0x1.8p+2)];
            tensor<fp16, [1, 144, 64, 64]> input_33_cast_fp16 = clip(alpha = input_33_alpha_0_to_fp16, beta = input_33_beta_0_to_fp16, x = input_31_cast_fp16)[name = tensor<string, []>("input_33_cast_fp16")];
            tensor<string, []> input_35_pad_type_0 = const()[name = tensor<string, []>("input_35_pad_type_0"), val = tensor<string, []>("valid")];
            tensor<int32, [2]> input_35_strides_0 = const()[name = tensor<string, []>("input_35_strides_0"), val = tensor<int32, [2]>([1, 1])];
            tensor<int32, [4]> input_35_pad_0 = const()[name = tensor<string, []>("input_35_pad_0"), val = tensor<int32, [4]>([0, 0, 0, 0])];
            tensor<int32, [2]> input_35_dilations_0 = const()[name = tensor<string, []>("input_35_dilations_0"), val = tensor<int32, [2]>([1, 1])];
            tensor<int32, []> input_35_groups_0 = const()[name = tensor<string, []>("input_35_groups_0"), val = tensor<int32, []>(1)];
            tensor<fp16, [32, 144, 1, 1]> const_15_to_fp16 = const()[name = tensor<string, []>("const_15_to_fp16"), val = tensor<fp16, [32, 144, 1, 1]>(BLOBFILE(path = tensor<string, []>("@model_path/weights/weight.bin"), offset = tensor<uint64, []>(14912)))];
            tensor<fp16, [32]> const_16_to_fp16 = const()[name = tensor<string, []>("const_16_to_fp16"), val = tensor<fp16, [32]>(BLOBFILE(path = tensor<string, []>("@model_path/weights/weight.bin"), offset = tensor<uint64, []>(24192)))];
            tensor<fp16, [1, 32, 64, 64]> input_37_cast_fp16 = conv(bias = const_16_to_fp16, dilations = input_35_dilations_0, groups = input_35_groups_0, pad = input_35_pad_0, pad_type = input_35_pad_type_0, strides = input_35_strides_0, weight = const_15_to_fp16, x = input_33_cast_fp16)[name = tensor<string, []>("input_37_cast_fp16")];
            tensor<string, []> input_39_pad_type_0 = const()[name = tensor<string, []>("input_39_pad_type_0"), val = tensor<string, []>("valid")];
            tensor<int32, [2]> input_39_strides_0 = const()[name = tensor<string, []>("input_39_strides_0"), val = tensor<int32, [2]>([1, 1])];
            tensor<int32, [4]> input_39_pad_0 = const()[name = tensor<string, []>("input_39_pad_0"), val = tensor<int32, [4]>([0, 0, 0, 0])];
            tensor<int32, [2]> input_39_dilations_0 = const()[name = tensor<string, []>("input_39_dilations_0"), val = tensor<int32, [2]>([1, 1])];
            tensor<int32, []> input_39_groups_0 = const()[name = tensor<string, []>("input_39_groups_0"), val = tensor<int32, []>(1)];
            tensor<fp16, [192, 32, 1, 1]> const_17_to_fp16 = const()[name = tensor<string, []>("const_17_to_fp16"), val = tensor<fp16, [192, 32, 1, 1]>(BLOBFILE(path = tensor<string, []>("@model_path/weights/weight.bin"), offset = tensor<uint64, []>(24320)))];
            tensor<fp16, [192]> const_18_to_fp16 = const()[name = tensor<string, []>("const_18_to_fp16"), val = tensor<fp16, [192]>(BLOBFILE(path = tensor<string, []>("@model_path/weights/weight.bin"), offset = tensor<uint64, []>(36672)))];
            tensor<fp16, [1, 192, 64, 64]> input_41_cast_fp16 = conv(bias = const_18_to_fp16, dilations = input_39_dilations_0, groups = input_39_groups_0, pad = input_39_pad_0, pad_type = input_39_pad_type_0, strides = input_39_strides_0, weight = const_17_to_fp16, x = input_37_cast_fp16)[name = tensor<string, []>("input_41_cast_fp16")];
            tensor<fp16, []> input_43_alpha_0_to_fp16 = const()[name = tensor<string, []>("input_43_alpha_0_to_fp16"), val = tensor<fp16, []>(0x0p+0)];
            tensor<fp16, []> input_43_beta_0_to_fp16 = const()[name = tensor<string, []>("input_43_beta_0_to_fp16"), val = tensor<fp16, []>(0x1.8p+2)];
            tensor<fp16, [1, 192, 64, 64]> input_43_cast_fp16 = clip(alpha = input_43_alpha_0_to_fp16, beta = input_43_beta_0_to_fp16, x = input_41_cast_fp16)[name = tensor<string, []>("input_43_cast_fp16")];
            tensor<string, []> input_45_pad_type_0 = const()[name = tensor<string, []>("input_45_pad_type_0"), val = tensor<string, []>("custom")];
            tensor<int32, [4]> input_45_pad_0 = const()[name = tensor<string, []>("input_45_pad_0"), val = tensor<int32, [4]>([1, 1, 1, 1])];
            tensor<int32, []> input_45_groups_0 = const()[name = tensor<string, []>("input_45_groups_0"), val = tensor<int32, []>(192)];
            tensor<int32, [2]> input_45_strides_0 = const()[name = tensor<string, []>("input_45_strides_0"), val = tensor<int32, [2]>([1, 1])];
            tensor<int32, [2]> input_45_dilations_0 = const()[name = tensor<string, []>("input_45_dilations_0"), val = tensor<int32, [2]>([1, 1])];
            tensor<fp16, [192, 1, 3, 3]> const_19_to_fp16 = const()[name = tensor<string, []>("const_19_to_fp16"), val = tensor<fp16, [192, 1, 3, 3]>(BLOBFILE(path = tensor<string, []>("@model_path/weights/weight.bin"), offset = tensor<uint64, []>(37120)))];
            tensor<fp16, [192]> const_20_to_fp16 = const()[name = tensor<string, []>("const_20_to_fp16"), val = tensor<fp16, [192]>(BLOBFILE(path = tensor<string, []>("@model_path/weights/weight.bin"), offset = tensor<uint64, []>(40640)))];
            tensor<fp16, [1, 192, 64, 64]> input_47_cast_fp16 = conv(bias = const_20_to_fp16, dilations = input_45_dilations_0, groups = input_45_groups_0, pad = input_45_pad_0, pad_type = input_45_pad_type_0, strides = input_45_strides_0, weight = const_19_to_fp16, x = input_43_cast_fp16)[name = tensor<string, []>("input_47_cast_fp16")];
            tensor<fp16, []> input_49_alpha_0_to_fp16 = const()[name = tensor<string, []>("input_49_alpha_0_to_fp16"), val = tensor<fp16, []>(0x0p+0)];
            tensor<fp16, []> input_49_beta_0_to_fp16 = const()[name = tensor<string, []>("input_49_beta_0_to_fp16"), val = tensor<fp16, []>(0x1.8p+2)];
            tensor<fp16, [1, 192, 64, 64]> input_49_cast_fp16 = clip(alpha = input_49_alpha_0_to_fp16, beta = input_49_beta_0_to_fp16, x = input_47_cast_fp16)[name = tensor<string, []>("input_49_cast_fp16")];
            tensor<string, []> input_51_pad_type_0 = const()[name = tensor<string, []>("input_51_pad_type_0"), val = tensor<string, []>("valid")];
            tensor<int32, [2]> input_51_strides_0 = const()[name = tensor<string, []>("input_51_strides_0"), val = tensor<int32, [2]>([1, 1])];
            tensor<int32, [4]> input_51_pad_0 = const()[name = tensor<string, []>("input_51_pad_0"), val = tensor<int32, [4]>([0, 0, 0, 0])];
            tensor<int32, [2]> input_51_dilations_0 = const()[name = tensor<string, []>("input_51_dilations_0"), val = tensor<int32, [2]>([1, 1])];
            tensor<int32, []> input_51_groups_0 = const()[name = tensor<string, []>("input_51_groups_0"), val = tensor<int32, []>(1)];
            tensor<fp16, [32, 192, 1, 1]> const_21_to_fp16 = const()[name = tensor<string, []>("const_21_to_fp16"), val = tensor<fp16, [32, 192, 1, 1]>(BLOBFILE(path = tensor<string, []>("@model_path/weights/weight.bin"), offset = tensor<uint64, []>(41088)))];
            tensor<fp16, [32]> const_22_to_fp16 = const()[name = tensor<string, []>("const_22_to_fp16"), val = tensor<fp16, [32]>(BLOBFILE(path = tensor<string, []>("@model_path/weights/weight.bin"), offset = tensor<uint64, []>(53440)))];
            tensor<fp16, [1, 32, 64, 64]> first_3_cast_fp16 = conv(bias = const_22_to_fp16, dilations = input_51_dilations_0, groups = input_51_groups_0, pad = input_51_pad_0, pad_type = input_51_pad_type_0, strides = input_51_strides_0, weight = const_21_to_fp16, x = input_49_cast_fp16)[name = tensor<string, []>("first_3_cast_fp16")];
            tensor<fp16, [1, 32, 64, 64]> input_53_cast_fp16 = add(x = first_3_cast_fp16, y = input_37_cast_fp16)[name = tensor<string, []>("input_53_cast_fp16")];
            tensor<string, []> input_55_pad_type_0 = const()[name = tensor<string, []>("input_55_pad_type_0"), val = tensor<string, []>("valid")];
            tensor<int32, [2]> input_55_strides_0 = const()[name = tensor<string, []>("input_55_strides_0"), val = tensor<int32, [2]>([1, 1])];
            tensor<int32, [4]> input_55_pad_0 = const()[name = tensor<string, []>("input_55_pad_0"), val = tensor<int32, [4]>([0, 0, 0, 0])];
            tensor<int32, [2]> input_55_dilations_0 = const()[name = tensor<string, []>("input_55_dilations_0"), val = tensor<int32, [2]>([1, 1])];
            tensor<int32, []> input_55_groups_0 = const()[name = tensor<string, []>("input_55_groups_0"), val = tensor<int32, []>(1)];
            tensor<fp16, [192, 32, 1, 1]> const_23_to_fp16 = const()[name = tensor<string, []>("const_23_to_fp16"), val = tensor<fp16, [192, 32, 1, 1]>(BLOBFILE(path = tensor<string, []>("@model_path/weights/weight.bin"), offset = tensor<uint64, []>(53568)))];
            tensor<fp16, [192]> const_24_to_fp16 = const()[name = tensor<string, []>("const_24_to_fp16"), val = tensor<fp16, [192]>(BLOBFILE(path = tensor<string, []>("@model_path/weights/weight.bin"), offset = tensor<uint64, []>(65920)))];
            tensor<fp16, [1, 192, 64, 64]> input_57_cast_fp16 = conv(bias = const_24_to_fp16, dilations = input_55_dilations_0, groups = input_55_groups_0, pad = input_55_pad_0, pad_type = input_55_pad_type_0, strides = input_55_strides_0, weight = const_23_to_fp16, x = input_53_cast_fp16)[name = tensor<string, []>("input_57_cast_fp16")];
            tensor<fp16, []> input_59_alpha_0_to_fp16 = const()[name = tensor<string, []>("input_59_alpha_0_to_fp16"), val = tensor<fp16, []>(0x0p+0)];
            tensor<fp16, []> input_59_beta_0_to_fp16 = const()[name = tensor<string, []>("input_59_beta_0_to_fp16"), val = tensor<fp16, []>(0x1.8p+2)];
            tensor<fp16, [1, 192, 64, 64]> input_59_cast_fp16 = clip(alpha = input_59_alpha_0_to_fp16, beta = input_59_beta_0_to_fp16, x = input_57_cast_fp16)[name = tensor<string, []>("input_59_cast_fp16")];
            tensor<string, []> input_61_pad_type_0 = const()[name = tensor<string, []>("input_61_pad_type_0"), val = tensor<string, []>("custom")];
            tensor<int32, [4]> input_61_pad_0 = const()[name = tensor<string, []>("input_61_pad_0"), val = tensor<int32, [4]>([1, 1, 1, 1])];
            tensor<int32, []> input_61_groups_0 = const()[name = tensor<string, []>("input_61_groups_0"), val = tensor<int32, []>(192)];
            tensor<int32, [2]> input_61_strides_0 = const()[name = tensor<string, []>("input_61_strides_0"), val = tensor<int32, [2]>([1, 1])];
            tensor<int32, [2]> input_61_dilations_0 = const()[name = tensor<string, []>("input_61_dilations_0"), val = tensor<int32, [2]>([1, 1])];
            tensor<fp16, [192, 1, 3, 3]> const_25_to_fp16 = const()[name = tensor<string, []>("const_25_to_fp16"), val = tensor<fp16, [192, 1, 3, 3]>(BLOBFILE(path = tensor<string, []>("@model_path/weights/weight.bin"), offset = tensor<uint64, []>(66368)))];
            tensor<fp16, [192]> const_26_to_fp16 = const()[name = tensor<string, []>("const_26_to_fp16"), val = tensor<fp16, [192]>(BLOBFILE(path = tensor<string, []>("@model_path/weights/weight.bin"), offset = tensor<uint64, []>(69888)))];
            tensor<fp16, [1, 192, 64, 64]> input_63_cast_fp16 = conv(bias = const_26_to_fp16, dilations = input_61_dilations_0, groups = input_61_groups_0, pad = input_61_pad_0, pad_type = input_61_pad_type_0, strides = input_61_strides_0, weight = const_25_to_fp16, x = input_59_cast_fp16)[name = tensor<string, []>("input_63_cast_fp16")];
            tensor<fp16, []> input_65_alpha_0_to_fp16 = const()[name = tensor<string, []>("input_65_alpha_0_to_fp16"), val = tensor<fp16, []>(0x0p+0)];
            tensor<fp16, []> input_65_beta_0_to_fp16 = const()[name = tensor<string, []>("input_65_beta_0_to_fp16"), val = tensor<fp16, []>(0x1.8p+2)];
            tensor<fp16, [1, 192, 64, 64]> input_65_cast_fp16 = clip(alpha = input_65_alpha_0_to_fp16, beta = input_65_beta_0_to_fp16, x = input_63_cast_fp16)[name = tensor<string, []>("input_65_cast_fp16")];
            tensor<string, []> input_67_pad_type_0 = const()[name = tensor<string, []>("input_67_pad_type_0"), val = tensor<string, []>("valid")];
            tensor<int32, [2]> input_67_strides_0 = const()[name = tensor<string, []>("input_67_strides_0"), val = tensor<int32, [2]>([1, 1])];
            tensor<int32, [4]> input_67_pad_0 = const()[name = tensor<string, []>("input_67_pad_0"), val = tensor<int32, [4]>([0, 0, 0, 0])];
            tensor<int32, [2]> input_67_dilations_0 = const()[name = tensor<string, []>("input_67_dilations_0"), val = tensor<int32, [2]>([1, 1])];
            tensor<int32, []> input_67_groups_0 = const()[name = tensor<string, []>("input_67_groups_0"), val = tensor<int32, []>(1)];
            tensor<fp16, [32, 192, 1, 1]> const_27_to_fp16 = const()[name = tensor<string, []>("const_27_to_fp16"), val = tensor<fp16, [32, 192, 1, 1]>(BLOBFILE(path = tensor<string, []>("@model_path/weights/weight.bin"), offset = tensor<uint64, []>(70336)))];
            tensor<fp16, [32]> const_28_to_fp16 = const()[name = tensor<string, []>("const_28_to_fp16"), val = tensor<fp16, [32]>(BLOBFILE(path = tensor<string, []>("@model_path/weights/weight.bin"), offset = tensor<uint64, []>(82688)))];
            tensor<fp16, [1, 32, 64, 64]> first_5_cast_fp16 = conv(bias = const_28_to_fp16, dilations = input_67_dilations_0, groups = input_67_groups_0, pad = input_67_pad_0, pad_type = input_67_pad_type_0, strides = input_67_strides_0, weight = const_27_to_fp16, x = input_65_cast_fp16)[name = tensor<string, []>("first_5_cast_fp16")];
            tensor<fp16, [1, 32, 64, 64]> input_69_cast_fp16 = add(x = first_5_cast_fp16, y = input_53_cast_fp16)[name = tensor<string, []>("input_69_cast_fp16")];
            tensor<string, []> input_71_pad_type_0 = const()[name = tensor<string, []>("input_71_pad_type_0"), val = tensor<string, []>("valid")];
            tensor<int32, [2]> input_71_strides_0 = const()[name = tensor<string, []>("input_71_strides_0"), val = tensor<int32, [2]>([1, 1])];
            tensor<int32, [4]> input_71_pad_0 = const()[name = tensor<string, []>("input_71_pad_0"), val = tensor<int32, [4]>([0, 0, 0, 0])];
            tensor<int32, [2]> input_71_dilations_0 = const()[name = tensor<string, []>("input_71_dilations_0"), val = tensor<int32, [2]>([1, 1])];
            tensor<int32, []> input_71_groups_0 = const()[name = tensor<string, []>("input_71_groups_0"), val = tensor<int32, []>(1)];
            tensor<fp16, [192, 32, 1, 1]> const_29_to_fp16 = const()[name = tensor<string, []>("const_29_to_fp16"), val = tensor<fp16, [192, 32, 1, 1]>(BLOBFILE(path = tensor<string, []>("@model_path/weights/weight.bin"), offset = tensor<uint64, []>(82816)))];
            tensor<fp16, [192]> const_30_to_fp16 = const()[name = tensor<string, []>("const_30_to_fp16"), val = tensor<fp16, [192]>(BLOBFILE(path = tensor<string, []>("@model_path/weights/weight.bin"), offset = tensor<uint64, []>(95168)))];
            tensor<fp16, [1, 192, 64, 64]> input_73_cast_fp16 = conv(bias = const_30_to_fp16, dilations = input_71_dilations_0, groups = input_71_groups_0, pad = input_71_pad_0, pad_type = input_71_pad_type_0, strides = input_71_strides_0, weight = const_29_to_fp16, x = input_69_cast_fp16)[name = tensor<string, []>("input_73_cast_fp16")];
            tensor<fp16, []> input_75_alpha_0_to_fp16 = const()[name = tensor<string, []>("input_75_alpha_0_to_fp16"), val = tensor<fp16, []>(0x0p+0)];
            tensor<fp16, []> input_75_beta_0_to_fp16 = const()[name = tensor<string, []>("input_75_beta_0_to_fp16"), val = tensor<fp16, []>(0x1.8p+2)];
            tensor<fp16, [1, 192, 64, 64]> input_75_cast_fp16 = clip(alpha = input_75_alpha_0_to_fp16, beta = input_75_beta_0_to_fp16, x = input_73_cast_fp16)[name = tensor<string, []>("input_75_cast_fp16")];
            tensor<int32, [8]> input_77_pad_0 = const()[name = tensor<string, []>("input_77_pad_0"), val = tensor<int32, [8]>([0, 0, 0, 0, 1, 2, 1, 2])];
            tensor<string, []> input_77_mode_0 = const()[name = tensor<string, []>("input_77_mode_0"), val = tensor<string, []>("constant")];
            tensor<fp16, []> const_2_to_fp16 = const()[name = tensor<string, []>("const_2_to_fp16"), val = tensor<fp16, []>(0x0p+0)];
            tensor<fp16, [1, 192, 67, 67]> input_77_cast_fp16 = pad(constant_val = const_2_to_fp16, mode = input_77_mode_0, pad = input_77_pad_0, x = input_75_cast_fp16)[name = tensor<string, []>("input_77_cast_fp16")];
            tensor<string, []> input_79_pad_type_0 = const()[name = tensor<string, []>("input_79_pad_type_0"), val = tensor<string, []>("valid")];
            tensor<int32, [2]> input_79_strides_0 = const()[name = tensor<string, []>("input_79_strides_0"), val = tensor<int32, [2]>([2, 2])];
            tensor<int32, []> input_79_groups_0 = const()[name = tensor<string, []>("input_79_groups_0"), val = tensor<int32, []>(192)];
            tensor<int32, [4]> input_79_pad_0 = const()[name = tensor<string, []>("input_79_pad_0"), val = tensor<int32, [4]>([0, 0, 0, 0])];
            tensor<int32, [2]> input_79_dilations_0 = const()[name = tensor<string, []>("input_79_dilations_0"), val = tensor<int32, [2]>([1, 1])];
            tensor<fp16, [192, 1, 5, 5]> const_31_to_fp16 = const()[name = tensor<string, []>("const_31_to_fp16"), val = tensor<fp16, [192, 1, 5, 5]>(BLOBFILE(path = tensor<string, []>("@model_path/weights/weight.bin"), offset = tensor<uint64, []>(95616)))];
            tensor<fp16, [192]> const_32_to_fp16 = const()[name = tensor<string, []>("const_32_to_fp16"), val = tensor<fp16, [192]>(BLOBFILE(path = tensor<string, []>("@model_path/weights/weight.bin"), offset = tensor<uint64, []>(105280)))];
            tensor<fp16, [1, 192, 32, 32]> input_81_cast_fp16 = conv(bias = const_32_to_fp16, dilations = input_79_dilations_0, groups = input_79_groups_0, pad = input_79_pad_0, pad_type = input_79_pad_type_0, strides = input_79_strides_0, weight = const_31_to_fp16, x = input_77_cast_fp16)[name = tensor<string, []>("input_81_cast_fp16")];
            tensor<fp16, []> input_83_alpha_0_to_fp16 = const()[name = tensor<string, []>("input_83_alpha_0_to_fp16"), val = tensor<fp16, []>(0x0p+0)];
            tensor<fp16, []> input_83_beta_0_to_fp16 = const()[name = tensor<string, []>("input_83_beta_0_to_fp16"), val = tensor<fp16, []>(0x1.8p+2)];
            tensor<fp16, [1, 192, 32, 32]> input_83_cast_fp16 = clip(alpha = input_83_alpha_0_to_fp16, beta = input_83_beta_0_to_fp16, x = input_81_cast_fp16)[name = tensor<string, []>("input_83_cast_fp16")];
            tensor<string, []> input_85_pad_type_0 = const()[name = tensor<string, []>("input_85_pad_type_0"), val = tensor<string, []>("valid")];
            tensor<int32, [2]> input_85_strides_0 = const()[name = tensor<string, []>("input_85_strides_0"), val = tensor<int32, [2]>([1, 1])];
            tensor<int32, [4]> input_85_pad_0 = const()[name = tensor<string, []>("input_85_pad_0"), val = tensor<int32, [4]>([0, 0, 0, 0])];
            tensor<int32, [2]> input_85_dilations_0 = const()[name = tensor<string, []>("input_85_dilations_0"), val = tensor<int32, [2]>([1, 1])];
            tensor<int32, []> input_85_groups_0 = const()[name = tensor<string, []>("input_85_groups_0"), val = tensor<int32, []>(1)];
            tensor<fp16, [48, 192, 1, 1]> const_33_to_fp16 = const()[name = tensor<string, []>("const_33_to_fp16"), val = tensor<fp16, [48, 192, 1, 1]>(BLOBFILE(path = tensor<string, []>("@model_path/weights/weight.bin"), offset = tensor<uint64, []>(105728)))];
            tensor<fp16, [48]> const_34_to_fp16 = const()[name = tensor<string, []>("const_34_to_fp16"), val = tensor<fp16, [48]>(BLOBFILE(path = tensor<string, []>("@model_path/weights/weight.bin"), offset = tensor<uint64, []>(124224)))];
            tensor<fp16, [1, 48, 32, 32]> input_87_cast_fp16 = conv(bias = const_34_to_fp16, dilations = input_85_dilations_0, groups = input_85_groups_0, pad = input_85_pad_0, pad_type = input_85_pad_type_0, strides = input_85_strides_0, weight = const_33_to_fp16, x = input_83_cast_fp16)[name = tensor<string, []>("input_87_cast_fp16")];
            tensor<string, []> input_89_pad_type_0 = const()[name = tensor<string, []>("input_89_pad_type_0"), val = tensor<string, []>("valid")];
            tensor<int32, [2]> input_89_strides_0 = const()[name = tensor<string, []>("input_89_strides_0"), val = tensor<int32, [2]>([1, 1])];
            tensor<int32, [4]> input_89_pad_0 = const()[name = tensor<string, []>("input_89_pad_0"), val = tensor<int32, [4]>([0, 0, 0, 0])];
            tensor<int32, [2]> input_89_dilations_0 = const()[name = tensor<string, []>("input_89_dilations_0"), val = tensor<int32, [2]>([1, 1])];
            tensor<int32, []> input_89_groups_0 = const()[name = tensor<string, []>("input_89_groups_0"), val = tensor<int32, []>(1)];
            tensor<fp16, [288, 48, 1, 1]> const_35_to_fp16 = const()[name = tensor<string, []>("const_35_to_fp16"), val = tensor<fp16, [288, 48, 1, 1]>(BLOBFILE(path = tensor<string, []>("@model_path/weights/weight.bin"), offset = tensor<uint64, []>(124416)))];
            tensor<fp16, [288]> const_36_to_fp16 = const()[name = tensor<string, []>("const_36_to_fp16"), val = tensor<fp16, [288]>(BLOBFILE(path = tensor<string, []>("@model_path/weights/weight.bin"), offset = tensor<uint64, []>(152128)))];
            tensor<fp16, [1, 288, 32, 32]> input_91_cast_fp16 = conv(bias = const_36_to_fp16, dilations = input_89_dilations_0, groups = input_89_groups_0, pad = input_89_pad_0, pad_type = input_89_pad_type_0, strides = input_89_strides_0, weight = const_35_to_fp16, x = input_87_cast_fp16)[name = tensor<string, []>("input_91_cast_fp16")];
            tensor<fp16, []> input_93_alpha_0_to_fp16 = const()[name = tensor<string, []>("input_93_alpha_0_to_fp16"), val = tensor<fp16, []>(0x0p+0)];
            tensor<fp16, []> input_93_beta_0_to_fp16 = const()[name = tensor<string, []>("input_93_beta_0_to_fp16"), val = tensor<fp16, []>(0x1.8p+2)];
            tensor<fp16, [1, 288, 32, 32]> input_93_cast_fp16 = clip(alpha = input_93_alpha_0_to_fp16, beta = input_93_beta_0_to_fp16, x = input_91_cast_fp16)[name = tensor<string, []>("input_93_cast_fp16")];
            tensor<string, []> input_95_pad_type_0 = const()[name = tensor<string, []>("input_95_pad_type_0"), val = tensor<string, []>("custom")];
            tensor<int32, [4]> input_95_pad_0 = const()[name = tensor<string, []>("input_95_pad_0"), val = tensor<int32, [4]>([2, 2, 2, 2])];
            tensor<int32, []> input_95_groups_0 = const()[name = tensor<string, []>("input_95_groups_0"), val = tensor<int32, []>(288)];
            tensor<int32, [2]> input_95_strides_0 = const()[name = tensor<string, []>("input_95_strides_0"), val = tensor<int32, [2]>([1, 1])];
            tensor<int32, [2]> input_95_dilations_0 = const()[name = tensor<string, []>("input_95_dilations_0"), val = tensor<int32, [2]>([1, 1])];
            tensor<fp16, [288, 1, 5, 5]> const_37_to_fp16 = const()[name = tensor<string, []>("const_37_to_fp16"), val = tensor<fp16, [288, 1, 5, 5]>(BLOBFILE(path = tensor<string, []>("@model_path/weights/weight.bin"), offset = tensor<uint64, []>(152768)))];
            tensor<fp16, [288]> const_38_to_fp16 = const()[name = tensor<string, []>("const_38_to_fp16"), val = tensor<fp16, [288]>(BLOBFILE(path = tensor<string, []>("@model_path/weights/weight.bin"), offset = tensor<uint64, []>(167232)))];
            tensor<fp16, [1, 288, 32, 32]> input_97_cast_fp16 = conv(bias = const_38_to_fp16, dilations = input_95_dilations_0, groups = input_95_groups_0, pad = input_95_pad_0, pad_type = input_95_pad_type_0, strides = input_95_strides_0, weight = const_37_to_fp16, x = input_93_cast_fp16)[name = tensor<string, []>("input_97_cast_fp16")];
            tensor<fp16, []> input_99_alpha_0_to_fp16 = const()[name = tensor<string, []>("input_99_alpha_0_to_fp16"), val = tensor<fp16, []>(0x0p+0)];
            tensor<fp16, []> input_99_beta_0_to_fp16 = const()[name = tensor<string, []>("input_99_beta_0_to_fp16"), val = tensor<fp16, []>(0x1.8p+2)];
            tensor<fp16, [1, 288, 32, 32]> input_99_cast_fp16 = clip(alpha = input_99_alpha_0_to_fp16, beta = input_99_beta_0_to_fp16, x = input_97_cast_fp16)[name = tensor<string, []>("input_99_cast_fp16")];
            tensor<string, []> input_101_pad_type_0 = const()[name = tensor<string, []>("input_101_pad_type_0"), val = tensor<string, []>("valid")];
            tensor<int32, [2]> input_101_strides_0 = const()[name = tensor<string, []>("input_101_strides_0"), val = tensor<int32, [2]>([1, 1])];
            tensor<int32, [4]> input_101_pad_0 = const()[name = tensor<string, []>("input_101_pad_0"), val = tensor<int32, [4]>([0, 0, 0, 0])];
            tensor<int32, [2]> input_101_dilations_0 = const()[name = tensor<string, []>("input_101_dilations_0"), val = tensor<int32, [2]>([1, 1])];
            tensor<int32, []> input_101_groups_0 = const()[name = tensor<string, []>("input_101_groups_0"), val = tensor<int32, []>(1)];
            tensor<fp16, [48, 288, 1, 1]> const_39_to_fp16 = const()[name = tensor<string, []>("const_39_to_fp16"), val = tensor<fp16, [48, 288, 1, 1]>(BLOBFILE(path = tensor<string, []>("@model_path/weights/weight.bin"), offset = tensor<uint64, []>(167872)))];
            tensor<fp16, [48]> const_40_to_fp16 = const()[name = tensor<string, []>("const_40_to_fp16"), val = tensor<fp16, [48]>(BLOBFILE(path = tensor<string, []>("@model_path/weights/weight.bin"), offset = tensor<uint64, []>(195584)))];
            tensor<fp16, [1, 48, 32, 32]> first_7_cast_fp16 = conv(bias = const_40_to_fp16, dilations = input_101_dilations_0, groups = input_101_groups_0, pad = input_101_pad_0, pad_type = input_101_pad_type_0, strides = input_101_strides_0, weight = const_39_to_fp16, x = input_99_cast_fp16)[name = tensor<string, []>("first_7_cast_fp16")];
            tensor<fp16, [1, 48, 32, 32]> input_103_cast_fp16 = add(x = first_7_cast_fp16, y = input_87_cast_fp16)[name = tensor<string, []>("input_103_cast_fp16")];
            tensor<string, []> input_105_pad_type_0 = const()[name = tensor<string, []>("input_105_pad_type_0"), val = tensor<string, []>("valid")];
            tensor<int32, [2]> input_105_strides_0 = const()[name = tensor<string, []>("input_105_strides_0"), val = tensor<int32, [2]>([1, 1])];
            tensor<int32, [4]> input_105_pad_0 = const()[name = tensor<string, []>("input_105_pad_0"), val = tensor<int32, [4]>([0, 0, 0, 0])];
            tensor<int32, [2]> input_105_dilations_0 = const()[name = tensor<string, []>("input_105_dilations_0"), val = tensor<int32, [2]>([1, 1])];
            tensor<int32, []> input_105_groups_0 = const()[name = tensor<string, []>("input_105_groups_0"), val = tensor<int32, []>(1)];
            tensor<fp16, [288, 48, 1, 1]> const_41_to_fp16 = const()[name = tensor<string, []>("const_41_to_fp16"), val = tensor<fp16, [288, 48, 1, 1]>(BLOBFILE(path = tensor<string, []>("@model_path/weights/weight.bin"), offset = tensor<uint64, []>(195776)))];
            tensor<fp16, [288]> const_42_to_fp16 = const()[name = tensor<string, []>("const_42_to_fp16"), val = tensor<fp16, [288]>(BLOBFILE(path = tensor<string, []>("@model_path/weights/weight.bin"), offset = tensor<uint64, []>(223488)))];
            tensor<fp16, [1, 288, 32, 32]> input_107_cast_fp16 = conv(bias = const_42_to_fp16, dilations = input_105_dilations_0, groups = input_105_groups_0, pad = input_105_pad_0, pad_type = input_105_pad_type_0, strides = input_105_strides_0, weight = const_41_to_fp16, x = input_103_cast_fp16)[name = tensor<string, []>("input_107_cast_fp16")];
            tensor<fp16, []> input_109_alpha_0_to_fp16 = const()[name = tensor<string, []>("input_109_alpha_0_to_fp16"), val = tensor<fp16, []>(0x0p+0)];
            tensor<fp16, []> input_109_beta_0_to_fp16 = const()[name = tensor<string, []>("input_109_beta_0_to_fp16"), val = tensor<fp16, []>(0x1.8p+2)];
            tensor<fp16, [1, 288, 32, 32]> input_109_cast_fp16 = clip(alpha = input_109_alpha_0_to_fp16, beta = input_109_beta_0_to_fp16, x = input_107_cast_fp16)[name = tensor<string, []>("input_109_cast_fp16")];
            tensor<string, []> input_111_pad_type_0 = const()[name = tensor<string, []>("input_111_pad_type_0"), val = tensor<string, []>("custom")];
            tensor<int32, [4]> input_111_pad_0 = const()[name = tensor<string, []>("input_111_pad_0"), val = tensor<int32, [4]>([2, 2, 2, 2])];
            tensor<int32, []> input_111_groups_0 = const()[name = tensor<string, []>("input_111_groups_0"), val = tensor<int32, []>(288)];
            tensor<int32, [2]> input_111_strides_0 = const()[name = tensor<string, []>("input_111_strides_0"), val = tensor<int32, [2]>([1, 1])];
            tensor<int32, [2]> input_111_dilations_0 = const()[name = tensor<string, []>("input_111_dilations_0"), val = tensor<int32, [2]>([1, 1])];
            tensor<fp16, [288, 1, 5, 5]> const_43_to_fp16 = const()[name = tensor<string, []>("const_43_to_fp16"), val = tensor<fp16, [288, 1, 5, 5]>(BLOBFILE(path = tensor<string, []>("@model_path/weights/weight.bin"), offset = tensor<uint64, []>(224128)))];
            tensor<fp16, [288]> const_44_to_fp16 = const()[name = tensor<string, []>("const_44_to_fp16"), val = tensor<fp16, [288]>(BLOBFILE(path = tensor<string, []>("@model_path/weights/weight.bin"), offset = tensor<uint64, []>(238592)))];
            tensor<fp16, [1, 288, 32, 32]> input_113_cast_fp16 = conv(bias = const_44_to_fp16, dilations = input_111_dilations_0, groups = input_111_groups_0, pad = input_111_pad_0, pad_type = input_111_pad_type_0, strides = input_111_strides_0, weight = const_43_to_fp16, x = input_109_cast_fp16)[name = tensor<string, []>("input_113_cast_fp16")];
            tensor<fp16, []> input_115_alpha_0_to_fp16 = const()[name = tensor<string, []>("input_115_alpha_0_to_fp16"), val = tensor<fp16, []>(0x0p+0)];
            tensor<fp16, []> input_115_beta_0_to_fp16 = const()[name = tensor<string, []>("input_115_beta_0_to_fp16"), val = tensor<fp16, []>(0x1.8p+2)];
            tensor<fp16, [1, 288, 32, 32]> input_115_cast_fp16 = clip(alpha = input_115_alpha_0_to_fp16, beta = input_115_beta_0_to_fp16, x = input_113_cast_fp16)[name = tensor<string, []>("input_115_cast_fp16")];
            tensor<string, []> input_117_pad_type_0 = const()[name = tensor<string, []>("input_117_pad_type_0"), val = tensor<string, []>("valid")];
            tensor<int32, [2]> input_117_strides_0 = const()[name = tensor<string, []>("input_117_strides_0"), val = tensor<int32, [2]>([1, 1])];
            tensor<int32, [4]> input_117_pad_0 = const()[name = tensor<string, []>("input_117_pad_0"), val = tensor<int32, [4]>([0, 0, 0, 0])];
            tensor<int32, [2]> input_117_dilations_0 = const()[name = tensor<string, []>("input_117_dilations_0"), val = tensor<int32, [2]>([1, 1])];
            tensor<int32, []> input_117_groups_0 = const()[name = tensor<string, []>("input_117_groups_0"), val = tensor<int32, []>(1)];
            tensor<fp16, [48, 288, 1, 1]> const_45_to_fp16 = const()[name = tensor<string, []>("const_45_to_fp16"), val = tensor<fp16, [48, 288, 1, 1]>(BLOBFILE(path = tensor<string, []>("@model_path/weights/weight.bin"), offset = tensor<uint64, []>(239232)))];
            tensor<fp16, [48]> const_46_to_fp16 = const()[name = tensor<string, []>("const_46_to_fp16"), val = tensor<fp16, [48]>(BLOBFILE(path = tensor<string, []>("@model_path/weights/weight.bin"), offset = tensor<uint64, []>(266944)))];
            tensor<fp16, [1, 48, 32, 32]> first_9_cast_fp16 = conv(bias = const_46_to_fp16, dilations = input_117_dilations_0, groups = input_117_groups_0, pad = input_117_pad_0, pad_type = input_117_pad_type_0, strides = input_117_strides_0, weight = const_45_to_fp16, x = input_115_cast_fp16)[name = tensor<string, []>("first_9_cast_fp16")];
            tensor<fp16, [1, 48, 32, 32]> input_119_cast_fp16 = add(x = first_9_cast_fp16, y = input_103_cast_fp16)[name = tensor<string, []>("input_119_cast_fp16")];
            tensor<string, []> input_121_pad_type_0 = const()[name = tensor<string, []>("input_121_pad_type_0"), val = tensor<string, []>("valid")];
            tensor<int32, [2]> input_121_strides_0 = const()[name = tensor<string, []>("input_121_strides_0"), val = tensor<int32, [2]>([1, 1])];
            tensor<int32, [4]> input_121_pad_0 = const()[name = tensor<string, []>("input_121_pad_0"), val = tensor<int32, [4]>([0, 0, 0, 0])];
            tensor<int32, [2]> input_121_dilations_0 = const()[name = tensor<string, []>("input_121_dilations_0"), val = tensor<int32, [2]>([1, 1])];
            tensor<int32, []> input_121_groups_0 = const()[name = tensor<string, []>("input_121_groups_0"), val = tensor<int32, []>(1)];
            tensor<fp16, [288, 48, 1, 1]> const_47_to_fp16 = const()[name = tensor<string, []>("const_47_to_fp16"), val = tensor<fp16, [288, 48, 1, 1]>(BLOBFILE(path = tensor<string, []>("@model_path/weights/weight.bin"), offset = tensor<uint64, []>(267136)))];
            tensor<fp16, [288]> const_48_to_fp16 = const()[name = tensor<string, []>("const_48_to_fp16"), val = tensor<fp16, [288]>(BLOBFILE(path = tensor<string, []>("@model_path/weights/weight.bin"), offset = tensor<uint64, []>(294848)))];
            tensor<fp16, [1, 288, 32, 32]> input_123_cast_fp16 = conv(bias = const_48_to_fp16, dilations = input_121_dilations_0, groups = input_121_groups_0, pad = input_121_pad_0, pad_type = input_121_pad_type_0, strides = input_121_strides_0, weight = const_47_to_fp16, x = input_119_cast_fp16)[name = tensor<string, []>("input_123_cast_fp16")];
            tensor<fp16, []> input_125_alpha_0_to_fp16 = const()[name = tensor<string, []>("input_125_alpha_0_to_fp16"), val = tensor<fp16, []>(0x0p+0)];
            tensor<fp16, []> input_125_beta_0_to_fp16 = const()[name = tensor<string, []>("input_125_beta_0_to_fp16"), val = tensor<fp16, []>(0x1.8p+2)];
            tensor<fp16, [1, 288, 32, 32]> input_125_cast_fp16 = clip(alpha = input_125_alpha_0_to_fp16, beta = input_125_beta_0_to_fp16, x = input_123_cast_fp16)[name = tensor<string, []>("input_125_cast_fp16")];
            tensor<int32, [8]> input_127_pad_0 = const()[name = tensor<string, []>("input_127_pad_0"), val = tensor<int32, [8]>([0, 0, 0, 0, 0, 1, 0, 1])];
            tensor<string, []> input_127_mode_0 = const()[name = tensor<string, []>("input_127_mode_0"), val = tensor<string, []>("constant")];
            tensor<fp16, []> const_3_to_fp16 = const()[name = tensor<string, []>("const_3_to_fp16"), val = tensor<fp16, []>(0x0p+0)];
            tensor<fp16, [1, 288, 33, 33]> input_127_cast_fp16 = pad(constant_val = const_3_to_fp16, mode = input_127_mode_0, pad = input_127_pad_0, x = input_125_cast_fp16)[name = tensor<string, []>("input_127_cast_fp16")];
            tensor<string, []> input_129_pad_type_0 = const()[name = tensor<string, []>("input_129_pad_type_0"), val = tensor<string, []>("valid")];
            tensor<int32, [2]> input_129_strides_0 = const()[name = tensor<string, []>("input_129_strides_0"), val = tensor<int32, [2]>([2, 2])];
            tensor<int32, []> input_129_groups_0 = const()[name = tensor<string, []>("input_129_groups_0"), val = tensor<int32, []>(288)];
            tensor<int32, [4]> input_129_pad_0 = const()[name = tensor<string, []>("input_129_pad_0"), val = tensor<int32, [4]>([0, 0, 0, 0])];
            tensor<int32, [2]> input_129_dilations_0 = const()[name = tensor<string, []>("input_129_dilations_0"), val = tensor<int32, [2]>([1, 1])];
            tensor<fp16, [288, 1, 3, 3]> const_49_to_fp16 = const()[name = tensor<string, []>("const_49_to_fp16"), val = tensor<fp16, [288, 1, 3, 3]>(BLOBFILE(path = tensor<string, []>("@model_path/weights/weight.bin"), offset = tensor<uint64, []>(295488)))];
            tensor<fp16, [288]> const_50_to_fp16 = const()[name = tensor<string, []>("const_50_to_fp16"), val = tensor<fp16, [288]>(BLOBFILE(path = tensor<string, []>("@model_path/weights/weight.bin"), offset = tensor<uint64, []>(300736)))];
            tensor<fp16, [1, 288, 16, 16]> input_131_cast_fp16 = conv(bias = const_50_to_fp16, dilations = input_129_dilations_0, groups = input_129_groups_0, pad = input_129_pad_0, pad_type = input_129_pad_type_0, strides = input_129_strides_0, weight = const_49_to_fp16, x = input_127_cast_fp16)[name = tensor<string, []>("input_131_cast_fp16")];
            tensor<fp16, []> input_133_alpha_0_to_fp16 = const()[name = tensor<string, []>("input_133_alpha_0_to_fp16"), val = tensor<fp16, []>(0x0p+0)];
            tensor<fp16, []> input_133_beta_0_to_fp16 = const()[name = tensor<string, []>("input_133_beta_0_to_fp16"), val = tensor<fp16, []>(0x1.8p+2)];
            tensor<fp16, [1, 288, 16, 16]> input_133_cast_fp16 = clip(alpha = input_133_alpha_0_to_fp16, beta = input_133_beta_0_to_fp16, x = input_131_cast_fp16)[name = tensor<string, []>("input_133_cast_fp16")];
            tensor<string, []> input_135_pad_type_0 = const()[name = tensor<string, []>("input_135_pad_type_0"), val = tensor<string, []>("valid")];
            tensor<int32, [2]> input_135_strides_0 = const()[name = tensor<string, []>("input_135_strides_0"), val = tensor<int32, [2]>([1, 1])];
            tensor<int32, [4]> input_135_pad_0 = const()[name = tensor<string, []>("input_135_pad_0"), val = tensor<int32, [4]>([0, 0, 0, 0])];
            tensor<int32, [2]> input_135_dilations_0 = const()[name = tensor<string, []>("input_135_dilations_0"), val = tensor<int32, [2]>([1, 1])];
            tensor<int32, []> input_135_groups_0 = const()[name = tensor<string, []>("input_135_groups_0"), val = tensor<int32, []>(1)];
            tensor<fp16, [96, 288, 1, 1]> const_51_to_fp16 = const()[name = tensor<string, []>("const_51_to_fp16"), val = tensor<fp16, [96, 288, 1, 1]>(BLOBFILE(path = tensor<string, []>("@model_path/weights/weight.bin"), offset = tensor<uint64, []>(301376)))];
            tensor<fp16, [96]> const_52_to_fp16 = const()[name = tensor<string, []>("const_52_to_fp16"), val = tensor<fp16, [96]>(BLOBFILE(path = tensor<string, []>("@model_path/weights/weight.bin"), offset = tensor<uint64, []>(356736)))];
            tensor<fp16, [1, 96, 16, 16]> input_137_cast_fp16 = conv(bias = const_52_to_fp16, dilations = input_135_dilations_0, groups = input_135_groups_0, pad = input_135_pad_0, pad_type = input_135_pad_type_0, strides = input_135_strides_0, weight = const_51_to_fp16, x = input_133_cast_fp16)[name = tensor<string, []>("input_137_cast_fp16")];
            tensor<string, []> input_139_pad_type_0 = const()[name = tensor<string, []>("input_139_pad_type_0"), val = tensor<string, []>("valid")];
            tensor<int32, [2]> input_139_strides_0 = const()[name = tensor<string, []>("input_139_strides_0"), val = tensor<int32, [2]>([1, 1])];
            tensor<int32, [4]> input_139_pad_0 = const()[name = tensor<string, []>("input_139_pad_0"), val = tensor<int32, [4]>([0, 0, 0, 0])];
            tensor<int32, [2]> input_139_dilations_0 = const()[name = tensor<string, []>("input_139_dilations_0"), val = tensor<int32, [2]>([1, 1])];
            tensor<int32, []> input_139_groups_0 = const()[name = tensor<string, []>("input_139_groups_0"), val = tensor<int32, []>(1)];
            tensor<fp16, [576, 96, 1, 1]> const_53_to_fp16 = const()[name = tensor<string, []>("const_53_to_fp16"), val = tensor<fp16, [576, 96, 1, 1]>(BLOBFILE(path = tensor<string, []>("@model_path/weights/weight.bin"), offset = tensor<uint64, []>(356992)))];
            tensor<fp16, [576]> const_54_to_fp16 = const()[name = tensor<string, []>("const_54_to_fp16"), val = tensor<fp16, [576]>(BLOBFILE(path = tensor<string, []>("@model_path/weights/weight.bin"), offset = tensor<uint64, []>(467648)))];
            tensor<fp16, [1, 576, 16, 16]> input_141_cast_fp16 = conv(bias = const_54_to_fp16, dilations = input_139_dilations_0, groups = input_139_groups_0, pad = input_139_pad_0, pad_type = input_139_pad_type_0, strides = input_139_strides_0, weight = const_53_to_fp16, x = input_137_cast_fp16)[name = tensor<string, []>("input_141_cast_fp16")];
            tensor<fp16, []> input_143_alpha_0_to_fp16 = const()[name = tensor<string, []>("input_143_alpha_0_to_fp16"), val = tensor<fp16, []>(0x0p+0)];
            tensor<fp16, []> input_143_beta_0_to_fp16 = const()[name = tensor<string, []>("input_143_beta_0_to_fp16"), val = tensor<fp16, []>(0x1.8p+2)];
            tensor<fp16, [1, 576, 16, 16]> input_143_cast_fp16 = clip(alpha = input_143_alpha_0_to_fp16, beta = input_143_beta_0_to_fp16, x = input_141_cast_fp16)[name = tensor<string, []>("input_143_cast_fp16")];
            tensor<string, []> input_145_pad_type_0 = const()[name = tensor<string, []>("input_145_pad_type_0"), val = tensor<string, []>("custom")];
            tensor<int32, [4]> input_145_pad_0 = const()[name = tensor<string, []>("input_145_pad_0"), val = tensor<int32, [4]>([1, 1, 1, 1])];
            tensor<int32, []> input_145_groups_0 = const()[name = tensor<string, []>("input_145_groups_0"), val = tensor<int32, []>(576)];
            tensor<int32, [2]> input_145_strides_0 = const()[name = tensor<string, []>("input_145_strides_0"), val = tensor<int32, [2]>([1, 1])];
            tensor<int32, [2]> input_145_dilations_0 = const()[name = tensor<string, []>("input_145_dilations_0"), val = tensor<int32, [2]>([1, 1])];
            tensor<fp16, [576, 1, 3, 3]> const_55_to_fp16 = const()[name = tensor<string, []>("const_55_to_fp16"), val = tensor<fp16, [576, 1, 3, 3]>(BLOBFILE(path = tensor<string, []>("@model_path/weights/weight.bin"), offset = tensor<uint64, []>(468864)))];
            tensor<fp16, [576]> const_56_to_fp16 = const()[name = tensor<string, []>("const_56_to_fp16"), val = tensor<fp16, [576]>(BLOBFILE(path = tensor<string, []>("@model_path/weights/weight.bin"), offset = tensor<uint64, []>(479296)))];
            tensor<fp16, [1, 576, 16, 16]> input_147_cast_fp16 = conv(bias = const_56_to_fp16, dilations = input_145_dilations_0, groups = input_145_groups_0, pad = input_145_pad_0, pad_type = input_145_pad_type_0, strides = input_145_strides_0, weight = const_55_to_fp16, x = input_143_cast_fp16)[name = tensor<string, []>("input_147_cast_fp16")];
            tensor<fp16, []> input_149_alpha_0_to_fp16 = const()[name = tensor<string, []>("input_149_alpha_0_to_fp16"), val = tensor<fp16, []>(0x0p+0)];
            tensor<fp16, []> input_149_beta_0_to_fp16 = const()[name = tensor<string, []>("input_149_beta_0_to_fp16"), val = tensor<fp16, []>(0x1.8p+2)];
            tensor<fp16, [1, 576, 16, 16]> input_149_cast_fp16 = clip(alpha = input_149_alpha_0_to_fp16, beta = input_149_beta_0_to_fp16, x = input_147_cast_fp16)[name = tensor<string, []>("input_149_cast_fp16")];
            tensor<string, []> input_151_pad_type_0 = const()[name = tensor<string, []>("input_151_pad_type_0"), val = tensor<string, []>("valid")];
            tensor<int32, [2]> input_151_strides_0 = const()[name = tensor<string, []>("input_151_strides_0"), val = tensor<int32, [2]>([1, 1])];
            tensor<int32, [4]> input_151_pad_0 = const()[name = tensor<string, []>("input_151_pad_0"), val = tensor<int32, [4]>([0, 0, 0, 0])];
            tensor<int32, [2]> input_151_dilations_0 = const()[name = tensor<string, []>("input_151_dilations_0"), val = tensor<int32, [2]>([1, 1])];
            tensor<int32, []> input_151_groups_0 = const()[name = tensor<string, []>("input_151_groups_0"), val = tensor<int32, []>(1)];
            tensor<fp16, [96, 576, 1, 1]> const_57_to_fp16 = const()[name = tensor<string, []>("const_57_to_fp16"), val = tensor<fp16, [96, 576, 1, 1]>(BLOBFILE(path = tensor<string, []>("@model_path/weights/weight.bin"), offset = tensor<uint64, []>(480512)))];
            tensor<fp16, [96]> const_58_to_fp16 = const()[name = tensor<string, []>("const_58_to_fp16"), val = tensor<fp16, [96]>(BLOBFILE(path = tensor<string, []>("@model_path/weights/weight.bin"), offset = tensor<uint64, []>(591168)))];
            tensor<fp16, [1, 96, 16, 16]> first_11_cast_fp16 = conv(bias = const_58_to_fp16, dilations = input_151_dilations_0, groups = input_151_groups_0, pad = input_151_pad_0, pad_type = input_151_pad_type_0, strides = input_151_strides_0, weight = const_57_to_fp16, x = input_149_cast_fp16)[name = tensor<string, []>("first_11_cast_fp16")];
            tensor<fp16, [1, 96, 16, 16]> input_153_cast_fp16 = add(x = first_11_cast_fp16, y = input_137_cast_fp16)[name = tensor<string, []>("input_153_cast_fp16")];
            tensor<string, []> input_155_pad_type_0 = const()[name = tensor<string, []>("input_155_pad_type_0"), val = tensor<string, []>("valid")];
            tensor<int32, [2]> input_155_strides_0 = const()[name = tensor<string, []>("input_155_strides_0"), val = tensor<int32, [2]>([1, 1])];
            tensor<int32, [4]> input_155_pad_0 = const()[name = tensor<string, []>("input_155_pad_0"), val = tensor<int32, [4]>([0, 0, 0, 0])];
            tensor<int32, [2]> input_155_dilations_0 = const()[name = tensor<string, []>("input_155_dilations_0"), val = tensor<int32, [2]>([1, 1])];
            tensor<int32, []> input_155_groups_0 = const()[name = tensor<string, []>("input_155_groups_0"), val = tensor<int32, []>(1)];
            tensor<fp16, [576, 96, 1, 1]> const_59_to_fp16 = const()[name = tensor<string, []>("const_59_to_fp16"), val = tensor<fp16, [576, 96, 1, 1]>(BLOBFILE(path = tensor<string, []>("@model_path/weights/weight.bin"), offset = tensor<uint64, []>(591424)))];
            tensor<fp16, [576]> const_60_to_fp16 = const()[name = tensor<string, []>("const_60_to_fp16"), val = tensor<fp16, [576]>(BLOBFILE(path = tensor<string, []>("@model_path/weights/weight.bin"), offset = tensor<uint64, []>(702080)))];
            tensor<fp16, [1, 576, 16, 16]> input_157_cast_fp16 = conv(bias = const_60_to_fp16, dilations = input_155_dilations_0, groups = input_155_groups_0, pad = input_155_pad_0, pad_type = input_155_pad_type_0, strides = input_155_strides_0, weight = const_59_to_fp16, x = input_153_cast_fp16)[name = tensor<string, []>("input_157_cast_fp16")];
            tensor<fp16, []> input_159_alpha_0_to_fp16 = const()[name = tensor<string, []>("input_159_alpha_0_to_fp16"), val = tensor<fp16, []>(0x0p+0)];
            tensor<fp16, []> input_159_beta_0_to_fp16 = const()[name = tensor<string, []>("input_159_beta_0_to_fp16"), val = tensor<fp16, []>(0x1.8p+2)];
            tensor<fp16, [1, 576, 16, 16]> input_159_cast_fp16 = clip(alpha = input_159_alpha_0_to_fp16, beta = input_159_beta_0_to_fp16, x = input_157_cast_fp16)[name = tensor<string, []>("input_159_cast_fp16")];
            tensor<string, []> input_161_pad_type_0 = const()[name = tensor<string, []>("input_161_pad_type_0"), val = tensor<string, []>("custom")];
            tensor<int32, [4]> input_161_pad_0 = const()[name = tensor<string, []>("input_161_pad_0"), val = tensor<int32, [4]>([1, 1, 1, 1])];
            tensor<int32, []> input_161_groups_0 = const()[name = tensor<string, []>("input_161_groups_0"), val = tensor<int32, []>(576)];
            tensor<int32, [2]> input_161_strides_0 = const()[name = tensor<string, []>("input_161_strides_0"), val = tensor<int32, [2]>([1, 1])];
            tensor<int32, [2]> input_161_dilations_0 = const()[name = tensor<string, []>("input_161_dilations_0"), val = tensor<int32, [2]>([1, 1])];
            tensor<fp16, [576, 1, 3, 3]> const_61_to_fp16 = const()[name = tensor<string, []>("const_61_to_fp16"), val = tensor<fp16, [576, 1, 3, 3]>(BLOBFILE(path = tensor<string, []>("@model_path/weights/weight.bin"), offset = tensor<uint64, []>(703296)))];
            tensor<fp16, [576]> const_62_to_fp16 = const()[name = tensor<string, []>("const_62_to_fp16"), val = tensor<fp16, [576]>(BLOBFILE(path = tensor<string, []>("@model_path/weights/weight.bin"), offset = tensor<uint64, []>(713728)))];
            tensor<fp16, [1, 576, 16, 16]> input_163_cast_fp16 = conv(bias = const_62_to_fp16, dilations = input_161_dilations_0, groups = input_161_groups_0, pad = input_161_pad_0, pad_type = input_161_pad_type_0, strides = input_161_strides_0, weight = const_61_to_fp16, x = input_159_cast_fp16)[name = tensor<string, []>("input_163_cast_fp16")];
            tensor<fp16, []> input_165_alpha_0_to_fp16 = const()[name = tensor<string, []>("input_165_alpha_0_to_fp16"), val = tensor<fp16, []>(0x0p+0)];
            tensor<fp16, []> input_165_beta_0_to_fp16 = const()[name = tensor<string, []>("input_165_beta_0_to_fp16"), val = tensor<fp16, []>(0x1.8p+2)];
            tensor<fp16, [1, 576, 16, 16]> input_165_cast_fp16 = clip(alpha = input_165_alpha_0_to_fp16, beta = input_165_beta_0_to_fp16, x = input_163_cast_fp16)[name = tensor<string, []>("input_165_cast_fp16")];
            tensor<string, []> input_167_pad_type_0 = const()[name = tensor<string, []>("input_167_pad_type_0"), val = tensor<string, []>("valid")];
            tensor<int32, [2]> input_167_strides_0 = const()[name = tensor<string, []>("input_167_strides_0"), val = tensor<int32, [2]>([1, 1])];
            tensor<int32, [4]> input_167_pad_0 = const()[name = tensor<string, []>("input_167_pad_0"), val = tensor<int32, [4]>([0, 0, 0, 0])];
            tensor<int32, [2]> input_167_dilations_0 = const()[name = tensor<string, []>("input_167_dilations_0"), val = tensor<int32, [2]>([1, 1])];
            tensor<int32, []> input_167_groups_0 = const()[name = tensor<string, []>("input_167_groups_0"), val = tensor<int32, []>(1)];
            tensor<fp16, [96, 576, 1, 1]> const_63_to_fp16 = const()[name = tensor<string, []>("const_63_to_fp16"), val = tensor<fp16, [96, 576, 1, 1]>(BLOBFILE(path = tensor<string, []>("@model_path/weights/weight.bin"), offset = tensor<uint64, []>(714944)))];
            tensor<fp16, [96]> const_64_to_fp16 = const()[name = tensor<string, []>("const_64_to_fp16"), val = tensor<fp16, [96]>(BLOBFILE(path = tensor<string, []>("@model_path/weights/weight.bin"), offset = tensor<uint64, []>(825600)))];
            tensor<fp16, [1, 96, 16, 16]> first_13_cast_fp16 = conv(bias = const_64_to_fp16, dilations = input_167_dilations_0, groups = input_167_groups_0, pad = input_167_pad_0, pad_type = input_167_pad_type_0, strides = input_167_strides_0, weight = const_63_to_fp16, x = input_165_cast_fp16)[name = tensor<string, []>("first_13_cast_fp16")];
            tensor<fp16, [1, 96, 16, 16]> input_169_cast_fp16 = add(x = first_13_cast_fp16, y = input_153_cast_fp16)[name = tensor<string, []>("input_169_cast_fp16")];
            tensor<string, []> input_171_pad_type_0 = const()[name = tensor<string, []>("input_171_pad_type_0"), val = tensor<string, []>("valid")];
            tensor<int32, [2]> input_171_strides_0 = const()[name = tensor<string, []>("input_171_strides_0"), val = tensor<int32, [2]>([1, 1])];
            tensor<int32, [4]> input_171_pad_0 = const()[name = tensor<string, []>("input_171_pad_0"), val = tensor<int32, [4]>([0, 0, 0, 0])];
            tensor<int32, [2]> input_171_dilations_0 = const()[name = tensor<string, []>("input_171_dilations_0"), val = tensor<int32, [2]>([1, 1])];
            tensor<int32, []> input_171_groups_0 = const()[name = tensor<string, []>("input_171_groups_0"), val = tensor<int32, []>(1)];
            tensor<fp16, [576, 96, 1, 1]> const_65_to_fp16 = const()[name = tensor<string, []>("const_65_to_fp16"), val = tensor<fp16, [576, 96, 1, 1]>(BLOBFILE(path = tensor<string, []>("@model_path/weights/weight.bin"), offset = tensor<uint64, []>(825856)))];
            tensor<fp16, [576]> const_66_to_fp16 = const()[name = tensor<string, []>("const_66_to_fp16"), val = tensor<fp16, [576]>(BLOBFILE(path = tensor<string, []>("@model_path/weights/weight.bin"), offset = tensor<uint64, []>(936512)))];
            tensor<fp16, [1, 576, 16, 16]> input_173_cast_fp16 = conv(bias = const_66_to_fp16, dilations = input_171_dilations_0, groups = input_171_groups_0, pad = input_171_pad_0, pad_type = input_171_pad_type_0, strides = input_171_strides_0, weight = const_65_to_fp16, x = input_169_cast_fp16)[name = tensor<string, []>("input_173_cast_fp16")];
            tensor<fp16, []> input_175_alpha_0_to_fp16 = const()[name = tensor<string, []>("input_175_alpha_0_to_fp16"), val = tensor<fp16, []>(0x0p+0)];
            tensor<fp16, []> input_175_beta_0_to_fp16 = const()[name = tensor<string, []>("input_175_beta_0_to_fp16"), val = tensor<fp16, []>(0x1.8p+2)];
            tensor<fp16, [1, 576, 16, 16]> input_175_cast_fp16 = clip(alpha = input_175_alpha_0_to_fp16, beta = input_175_beta_0_to_fp16, x = input_173_cast_fp16)[name = tensor<string, []>("input_175_cast_fp16")];
            tensor<string, []> input_177_pad_type_0 = const()[name = tensor<string, []>("input_177_pad_type_0"), val = tensor<string, []>("custom")];
            tensor<int32, [4]> input_177_pad_0 = const()[name = tensor<string, []>("input_177_pad_0"), val = tensor<int32, [4]>([1, 1, 1, 1])];
            tensor<int32, []> input_177_groups_0 = const()[name = tensor<string, []>("input_177_groups_0"), val = tensor<int32, []>(576)];
            tensor<int32, [2]> input_177_strides_0 = const()[name = tensor<string, []>("input_177_strides_0"), val = tensor<int32, [2]>([1, 1])];
            tensor<int32, [2]> input_177_dilations_0 = const()[name = tensor<string, []>("input_177_dilations_0"), val = tensor<int32, [2]>([1, 1])];
            tensor<fp16, [576, 1, 3, 3]> const_67_to_fp16 = const()[name = tensor<string, []>("const_67_to_fp16"), val = tensor<fp16, [576, 1, 3, 3]>(BLOBFILE(path = tensor<string, []>("@model_path/weights/weight.bin"), offset = tensor<uint64, []>(937728)))];
            tensor<fp16, [576]> const_68_to_fp16 = const()[name = tensor<string, []>("const_68_to_fp16"), val = tensor<fp16, [576]>(BLOBFILE(path = tensor<string, []>("@model_path/weights/weight.bin"), offset = tensor<uint64, []>(948160)))];
            tensor<fp16, [1, 576, 16, 16]> input_179_cast_fp16 = conv(bias = const_68_to_fp16, dilations = input_177_dilations_0, groups = input_177_groups_0, pad = input_177_pad_0, pad_type = input_177_pad_type_0, strides = input_177_strides_0, weight = const_67_to_fp16, x = input_175_cast_fp16)[name = tensor<string, []>("input_179_cast_fp16")];
            tensor<fp16, []> input_181_alpha_0_to_fp16 = const()[name = tensor<string, []>("input_181_alpha_0_to_fp16"), val = tensor<fp16, []>(0x0p+0)];
            tensor<fp16, []> input_181_beta_0_to_fp16 = const()[name = tensor<string, []>("input_181_beta_0_to_fp16"), val = tensor<fp16, []>(0x1.8p+2)];
            tensor<fp16, [1, 576, 16, 16]> input_181_cast_fp16 = clip(alpha = input_181_alpha_0_to_fp16, beta = input_181_beta_0_to_fp16, x = input_179_cast_fp16)[name = tensor<string, []>("input_181_cast_fp16")];
            tensor<string, []> input_183_pad_type_0 = const()[name = tensor<string, []>("input_183_pad_type_0"), val = tensor<string, []>("valid")];
            tensor<int32, [2]> input_183_strides_0 = const()[name = tensor<string, []>("input_183_strides_0"), val = tensor<int32, [2]>([1, 1])];
            tensor<int32, [4]> input_183_pad_0 = const()[name = tensor<string, []>("input_183_pad_0"), val = tensor<int32, [4]>([0, 0, 0, 0])];
            tensor<int32, [2]> input_183_dilations_0 = const()[name = tensor<string, []>("input_183_dilations_0"), val = tensor<int32, [2]>([1, 1])];
            tensor<int32, []> input_183_groups_0 = const()[name = tensor<string, []>("input_183_groups_0"), val = tensor<int32, []>(1)];
            tensor<fp16, [96, 576, 1, 1]> const_69_to_fp16 = const()[name = tensor<string, []>("const_69_to_fp16"), val = tensor<fp16, [96, 576, 1, 1]>(BLOBFILE(path = tensor<string, []>("@model_path/weights/weight.bin"), offset = tensor<uint64, []>(949376)))];
            tensor<fp16, [96]> const_70_to_fp16 = const()[name = tensor<string, []>("const_70_to_fp16"), val = tensor<fp16, [96]>(BLOBFILE(path = tensor<string, []>("@model_path/weights/weight.bin"), offset = tensor<uint64, []>(1060032)))];
            tensor<fp16, [1, 96, 16, 16]> first_15_cast_fp16 = conv(bias = const_70_to_fp16, dilations = input_183_dilations_0, groups = input_183_groups_0, pad = input_183_pad_0, pad_type = input_183_pad_type_0, strides = input_183_strides_0, weight = const_69_to_fp16, x = input_181_cast_fp16)[name = tensor<string, []>("first_15_cast_fp16")];
            tensor<fp16, [1, 96, 16, 16]> input_185_cast_fp16 = add(x = first_15_cast_fp16, y = input_169_cast_fp16)[name = tensor<string, []>("input_185_cast_fp16")];
            tensor<string, []> input_187_pad_type_0 = const()[name = tensor<string, []>("input_187_pad_type_0"), val = tensor<string, []>("valid")];
            tensor<int32, [2]> input_187_strides_0 = const()[name = tensor<string, []>("input_187_strides_0"), val = tensor<int32, [2]>([1, 1])];
            tensor<int32, [4]> input_187_pad_0 = const()[name = tensor<string, []>("input_187_pad_0"), val = tensor<int32, [4]>([0, 0, 0, 0])];
            tensor<int32, [2]> input_187_dilations_0 = const()[name = tensor<string, []>("input_187_dilations_0"), val = tensor<int32, [2]>([1, 1])];
            tensor<int32, []> input_187_groups_0 = const()[name = tensor<string, []>("input_187_groups_0"), val = tensor<int32, []>(1)];
            tensor<fp16, [576, 96, 1, 1]> const_71_to_fp16 = const()[name = tensor<string, []>("const_71_to_fp16"), val = tensor<fp16, [576, 96, 1, 1]>(BLOBFILE(path = tensor<string, []>("@model_path/weights/weight.bin"), offset = tensor<uint64, []>(1060288)))];
            tensor<fp16, [576]> const_72_to_fp16 = const()[name = tensor<string, []>("const_72_to_fp16"), val = tensor<fp16, [576]>(BLOBFILE(path = tensor<string, []>("@model_path/weights/weight.bin"), offset = tensor<uint64, []>(1170944)))];
            tensor<fp16, [1, 576, 16, 16]> input_189_cast_fp16 = conv(bias = const_72_to_fp16, dilations = input_187_dilations_0, groups = input_187_groups_0, pad = input_187_pad_0, pad_type = input_187_pad_type_0, strides = input_187_strides_0, weight = const_71_to_fp16, x = input_185_cast_fp16)[name = tensor<string, []>("input_189_cast_fp16")];
            tensor<fp16, []> input_191_alpha_0_to_fp16 = const()[name = tensor<string, []>("input_191_alpha_0_to_fp16"), val = tensor<fp16, []>(0x0p+0)];
            tensor<fp16, []> input_191_beta_0_to_fp16 = const()[name = tensor<string, []>("input_191_beta_0_to_fp16"), val = tensor<fp16, []>(0x1.8p+2)];
            tensor<fp16, [1, 576, 16, 16]> input_191_cast_fp16 = clip(alpha = input_191_alpha_0_to_fp16, beta = input_191_beta_0_to_fp16, x = input_189_cast_fp16)[name = tensor<string, []>("input_191_cast_fp16")];
            tensor<string, []> input_193_pad_type_0 = const()[name = tensor<string, []>("input_193_pad_type_0"), val = tensor<string, []>("custom")];
            tensor<int32, [4]> input_193_pad_0 = const()[name = tensor<string, []>("input_193_pad_0"), val = tensor<int32, [4]>([1, 1, 1, 1])];
            tensor<int32, []> input_193_groups_0 = const()[name = tensor<string, []>("input_193_groups_0"), val = tensor<int32, []>(576)];
            tensor<int32, [2]> input_193_strides_0 = const()[name = tensor<string, []>("input_193_strides_0"), val = tensor<int32, [2]>([1, 1])];
            tensor<int32, [2]> input_193_dilations_0 = const()[name = tensor<string, []>("input_193_dilations_0"), val = tensor<int32, [2]>([1, 1])];
            tensor<fp16, [576, 1, 3, 3]> const_73_to_fp16 = const()[name = tensor<string, []>("const_73_to_fp16"), val = tensor<fp16, [576, 1, 3, 3]>(BLOBFILE(path = tensor<string, []>("@model_path/weights/weight.bin"), offset = tensor<uint64, []>(1172160)))];
            tensor<fp16, [576]> const_74_to_fp16 = const()[name = tensor<string, []>("const_74_to_fp16"), val = tensor<fp16, [576]>(BLOBFILE(path = tensor<string, []>("@model_path/weights/weight.bin"), offset = tensor<uint64, []>(1182592)))];
            tensor<fp16, [1, 576, 16, 16]> input_195_cast_fp16 = conv(bias = const_74_to_fp16, dilations = input_193_dilations_0, groups = input_193_groups_0, pad = input_193_pad_0, pad_type = input_193_pad_type_0, strides = input_193_strides_0, weight = const_73_to_fp16, x = input_191_cast_fp16)[name = tensor<string, []>("input_195_cast_fp16")];
            tensor<fp16, []> input_197_alpha_0_to_fp16 = const()[name = tensor<string, []>("input_197_alpha_0_to_fp16"), val = tensor<fp16, []>(0x0p+0)];
            tensor<fp16, []> input_197_beta_0_to_fp16 = const()[name = tensor<string, []>("input_197_beta_0_to_fp16"), val = tensor<fp16, []>(0x1.8p+2)];
            tensor<fp16, [1, 576, 16, 16]> input_197_cast_fp16 = clip(alpha = input_197_alpha_0_to_fp16, beta = input_197_beta_0_to_fp16, x = input_195_cast_fp16)[name = tensor<string, []>("input_197_cast_fp16")];
            tensor<string, []> input_199_pad_type_0 = const()[name = tensor<string, []>("input_199_pad_type_0"), val = tensor<string, []>("valid")];
            tensor<int32, [2]> input_199_strides_0 = const()[name = tensor<string, []>("input_199_strides_0"), val = tensor<int32, [2]>([1, 1])];
            tensor<int32, [4]> input_199_pad_0 = const()[name = tensor<string, []>("input_199_pad_0"), val = tensor<int32, [4]>([0, 0, 0, 0])];
            tensor<int32, [2]> input_199_dilations_0 = const()[name = tensor<string, []>("input_199_dilations_0"), val = tensor<int32, [2]>([1, 1])];
            tensor<int32, []> input_199_groups_0 = const()[name = tensor<string, []>("input_199_groups_0"), val = tensor<int32, []>(1)];
            tensor<fp16, [96, 576, 1, 1]> const_75_to_fp16 = const()[name = tensor<string, []>("const_75_to_fp16"), val = tensor<fp16, [96, 576, 1, 1]>(BLOBFILE(path = tensor<string, []>("@model_path/weights/weight.bin"), offset = tensor<uint64, []>(1183808)))];
            tensor<fp16, [96]> const_76_to_fp16 = const()[name = tensor<string, []>("const_76_to_fp16"), val = tensor<fp16, [96]>(BLOBFILE(path = tensor<string, []>("@model_path/weights/weight.bin"), offset = tensor<uint64, []>(1294464)))];
            tensor<fp16, [1, 96, 16, 16]> first_17_cast_fp16 = conv(bias = const_76_to_fp16, dilations = input_199_dilations_0, groups = input_199_groups_0, pad = input_199_pad_0, pad_type = input_199_pad_type_0, strides = input_199_strides_0, weight = const_75_to_fp16, x = input_197_cast_fp16)[name = tensor<string, []>("first_17_cast_fp16")];
            tensor<fp16, [1, 96, 16, 16]> input_201_cast_fp16 = add(x = first_17_cast_fp16, y = input_185_cast_fp16)[name = tensor<string, []>("input_201_cast_fp16")];
            tensor<string, []> input_203_pad_type_0 = const()[name = tensor<string, []>("input_203_pad_type_0"), val = tensor<string, []>("valid")];
            tensor<int32, [2]> input_203_strides_0 = const()[name = tensor<string, []>("input_203_strides_0"), val = tensor<int32, [2]>([1, 1])];
            tensor<int32, [4]> input_203_pad_0 = const()[name = tensor<string, []>("input_203_pad_0"), val = tensor<int32, [4]>([0, 0, 0, 0])];
            tensor<int32, [2]> input_203_dilations_0 = const()[name = tensor<string, []>("input_203_dilations_0"), val = tensor<int32, [2]>([1, 1])];
            tensor<int32, []> input_203_groups_0 = const()[name = tensor<string, []>("input_203_groups_0"), val = tensor<int32, []>(1)];
            tensor<fp16, [576, 96, 1, 1]> const_77_to_fp16 = const()[name = tensor<string, []>("const_77_to_fp16"), val = tensor<fp16, [576, 96, 1, 1]>(BLOBFILE(path = tensor<string, []>("@model_path/weights/weight.bin"), offset = tensor<uint64, []>(1294720)))];
            tensor<fp16, [576]> const_78_to_fp16 = const()[name = tensor<string, []>("const_78_to_fp16"), val = tensor<fp16, [576]>(BLOBFILE(path = tensor<string, []>("@model_path/weights/weight.bin"), offset = tensor<uint64, []>(1405376)))];
            tensor<fp16, [1, 576, 16, 16]> input_205_cast_fp16 = conv(bias = const_78_to_fp16, dilations = input_203_dilations_0, groups = input_203_groups_0, pad = input_203_pad_0, pad_type = input_203_pad_type_0, strides = input_203_strides_0, weight = const_77_to_fp16, x = input_201_cast_fp16)[name = tensor<string, []>("input_205_cast_fp16")];
            tensor<fp16, []> input_207_alpha_0_to_fp16 = const()[name = tensor<string, []>("input_207_alpha_0_to_fp16"), val = tensor<fp16, []>(0x0p+0)];
            tensor<fp16, []> input_207_beta_0_to_fp16 = const()[name = tensor<string, []>("input_207_beta_0_to_fp16"), val = tensor<fp16, []>(0x1.8p+2)];
            tensor<fp16, [1, 576, 16, 16]> input_207_cast_fp16 = clip(alpha = input_207_alpha_0_to_fp16, beta = input_207_beta_0_to_fp16, x = input_205_cast_fp16)[name = tensor<string, []>("input_207_cast_fp16")];
            tensor<string, []> input_209_pad_type_0 = const()[name = tensor<string, []>("input_209_pad_type_0"), val = tensor<string, []>("custom")];
            tensor<int32, [4]> input_209_pad_0 = const()[name = tensor<string, []>("input_209_pad_0"), val = tensor<int32, [4]>([2, 2, 2, 2])];
            tensor<int32, []> input_209_groups_0 = const()[name = tensor<string, []>("input_209_groups_0"), val = tensor<int32, []>(576)];
            tensor<int32, [2]> input_209_strides_0 = const()[name = tensor<string, []>("input_209_strides_0"), val = tensor<int32, [2]>([1, 1])];
            tensor<int32, [2]> input_209_dilations_0 = const()[name = tensor<string, []>("input_209_dilations_0"), val = tensor<int32, [2]>([1, 1])];
            tensor<fp16, [576, 1, 5, 5]> const_79_to_fp16 = const()[name = tensor<string, []>("const_79_to_fp16"), val = tensor<fp16, [576, 1, 5, 5]>(BLOBFILE(path = tensor<string, []>("@model_path/weights/weight.bin"), offset = tensor<uint64, []>(1406592)))];
            tensor<fp16, [576]> const_80_to_fp16 = const()[name = tensor<string, []>("const_80_to_fp16"), val = tensor<fp16, [576]>(BLOBFILE(path = tensor<string, []>("@model_path/weights/weight.bin"), offset = tensor<uint64, []>(1435456)))];
            tensor<fp16, [1, 576, 16, 16]> input_211_cast_fp16 = conv(bias = const_80_to_fp16, dilations = input_209_dilations_0, groups = input_209_groups_0, pad = input_209_pad_0, pad_type = input_209_pad_type_0, strides = input_209_strides_0, weight = const_79_to_fp16, x = input_207_cast_fp16)[name = tensor<string, []>("input_211_cast_fp16")];
            tensor<fp16, []> input_213_alpha_0_to_fp16 = const()[name = tensor<string, []>("input_213_alpha_0_to_fp16"), val = tensor<fp16, []>(0x0p+0)];
            tensor<fp16, []> input_213_beta_0_to_fp16 = const()[name = tensor<string, []>("input_213_beta_0_to_fp16"), val = tensor<fp16, []>(0x1.8p+2)];
            tensor<fp16, [1, 576, 16, 16]> input_213_cast_fp16 = clip(alpha = input_213_alpha_0_to_fp16, beta = input_213_beta_0_to_fp16, x = input_211_cast_fp16)[name = tensor<string, []>("input_213_cast_fp16")];
            tensor<string, []> input_215_pad_type_0 = const()[name = tensor<string, []>("input_215_pad_type_0"), val = tensor<string, []>("valid")];
            tensor<int32, [2]> input_215_strides_0 = const()[name = tensor<string, []>("input_215_strides_0"), val = tensor<int32, [2]>([1, 1])];
            tensor<int32, [4]> input_215_pad_0 = const()[name = tensor<string, []>("input_215_pad_0"), val = tensor<int32, [4]>([0, 0, 0, 0])];
            tensor<int32, [2]> input_215_dilations_0 = const()[name = tensor<string, []>("input_215_dilations_0"), val = tensor<int32, [2]>([1, 1])];
            tensor<int32, []> input_215_groups_0 = const()[name = tensor<string, []>("input_215_groups_0"), val = tensor<int32, []>(1)];
            tensor<fp16, [136, 576, 1, 1]> const_81_to_fp16 = const()[name = tensor<string, []>("const_81_to_fp16"), val = tensor<fp16, [136, 576, 1, 1]>(BLOBFILE(path = tensor<string, []>("@model_path/weights/weight.bin"), offset = tensor<uint64, []>(1436672)))];
            tensor<fp16, [136]> const_82_to_fp16 = const()[name = tensor<string, []>("const_82_to_fp16"), val = tensor<fp16, [136]>(BLOBFILE(path = tensor<string, []>("@model_path/weights/weight.bin"), offset = tensor<uint64, []>(1593408)))];
            tensor<fp16, [1, 136, 16, 16]> input_217_cast_fp16 = conv(bias = const_82_to_fp16, dilations = input_215_dilations_0, groups = input_215_groups_0, pad = input_215_pad_0, pad_type = input_215_pad_type_0, strides = input_215_strides_0, weight = const_81_to_fp16, x = input_213_cast_fp16)[name = tensor<string, []>("input_217_cast_fp16")];
            tensor<string, []> input_219_pad_type_0 = const()[name = tensor<string, []>("input_219_pad_type_0"), val = tensor<string, []>("valid")];
            tensor<int32, [2]> input_219_strides_0 = const()[name = tensor<string, []>("input_219_strides_0"), val = tensor<int32, [2]>([1, 1])];
            tensor<int32, [4]> input_219_pad_0 = const()[name = tensor<string, []>("input_219_pad_0"), val = tensor<int32, [4]>([0, 0, 0, 0])];
            tensor<int32, [2]> input_219_dilations_0 = const()[name = tensor<string, []>("input_219_dilations_0"), val = tensor<int32, [2]>([1, 1])];
            tensor<int32, []> input_219_groups_0 = const()[name = tensor<string, []>("input_219_groups_0"), val = tensor<int32, []>(1)];
            tensor<fp16, [816, 136, 1, 1]> const_83_to_fp16 = const()[name = tensor<string, []>("const_83_to_fp16"), val = tensor<fp16, [816, 136, 1, 1]>(BLOBFILE(path = tensor<string, []>("@model_path/weights/weight.bin"), offset = tensor<uint64, []>(1593792)))];
            tensor<fp16, [816]> const_84_to_fp16 = const()[name = tensor<string, []>("const_84_to_fp16"), val = tensor<fp16, [816]>(BLOBFILE(path = tensor<string, []>("@model_path/weights/weight.bin"), offset = tensor<uint64, []>(1815808)))];
            tensor<fp16, [1, 816, 16, 16]> input_221_cast_fp16 = conv(bias = const_84_to_fp16, dilations = input_219_dilations_0, groups = input_219_groups_0, pad = input_219_pad_0, pad_type = input_219_pad_type_0, strides = input_219_strides_0, weight = const_83_to_fp16, x = input_217_cast_fp16)[name = tensor<string, []>("input_221_cast_fp16")];
            tensor<fp16, []> input_223_alpha_0_to_fp16 = const()[name = tensor<string, []>("input_223_alpha_0_to_fp16"), val = tensor<fp16, []>(0x0p+0)];
            tensor<fp16, []> input_223_beta_0_to_fp16 = const()[name = tensor<string, []>("input_223_beta_0_to_fp16"), val = tensor<fp16, []>(0x1.8p+2)];
            tensor<fp16, [1, 816, 16, 16]> input_223_cast_fp16 = clip(alpha = input_223_alpha_0_to_fp16, beta = input_223_beta_0_to_fp16, x = input_221_cast_fp16)[name = tensor<string, []>("input_223_cast_fp16")];
            tensor<string, []> input_225_pad_type_0 = const()[name = tensor<string, []>("input_225_pad_type_0"), val = tensor<string, []>("custom")];
            tensor<int32, [4]> input_225_pad_0 = const()[name = tensor<string, []>("input_225_pad_0"), val = tensor<int32, [4]>([2, 2, 2, 2])];
            tensor<int32, []> input_225_groups_0 = const()[name = tensor<string, []>("input_225_groups_0"), val = tensor<int32, []>(816)];
            tensor<int32, [2]> input_225_strides_0 = const()[name = tensor<string, []>("input_225_strides_0"), val = tensor<int32, [2]>([1, 1])];
            tensor<int32, [2]> input_225_dilations_0 = const()[name = tensor<string, []>("input_225_dilations_0"), val = tensor<int32, [2]>([1, 1])];
            tensor<fp16, [816, 1, 5, 5]> const_85_to_fp16 = const()[name = tensor<string, []>("const_85_to_fp16"), val = tensor<fp16, [816, 1, 5, 5]>(BLOBFILE(path = tensor<string, []>("@model_path/weights/weight.bin"), offset = tensor<uint64, []>(1817536)))];
            tensor<fp16, [816]> const_86_to_fp16 = const()[name = tensor<string, []>("const_86_to_fp16"), val = tensor<fp16, [816]>(BLOBFILE(path = tensor<string, []>("@model_path/weights/weight.bin"), offset = tensor<uint64, []>(1858432)))];
            tensor<fp16, [1, 816, 16, 16]> input_227_cast_fp16 = conv(bias = const_86_to_fp16, dilations = input_225_dilations_0, groups = input_225_groups_0, pad = input_225_pad_0, pad_type = input_225_pad_type_0, strides = input_225_strides_0, weight = const_85_to_fp16, x = input_223_cast_fp16)[name = tensor<string, []>("input_227_cast_fp16")];
            tensor<fp16, []> input_229_alpha_0_to_fp16 = const()[name = tensor<string, []>("input_229_alpha_0_to_fp16"), val = tensor<fp16, []>(0x0p+0)];
            tensor<fp16, []> input_229_beta_0_to_fp16 = const()[name = tensor<string, []>("input_229_beta_0_to_fp16"), val = tensor<fp16, []>(0x1.8p+2)];
            tensor<fp16, [1, 816, 16, 16]> input_229_cast_fp16 = clip(alpha = input_229_alpha_0_to_fp16, beta = input_229_beta_0_to_fp16, x = input_227_cast_fp16)[name = tensor<string, []>("input_229_cast_fp16")];
            tensor<string, []> input_231_pad_type_0 = const()[name = tensor<string, []>("input_231_pad_type_0"), val = tensor<string, []>("valid")];
            tensor<int32, [2]> input_231_strides_0 = const()[name = tensor<string, []>("input_231_strides_0"), val = tensor<int32, [2]>([1, 1])];
            tensor<int32, [4]> input_231_pad_0 = const()[name = tensor<string, []>("input_231_pad_0"), val = tensor<int32, [4]>([0, 0, 0, 0])];
            tensor<int32, [2]> input_231_dilations_0 = const()[name = tensor<string, []>("input_231_dilations_0"), val = tensor<int32, [2]>([1, 1])];
            tensor<int32, []> input_231_groups_0 = const()[name = tensor<string, []>("input_231_groups_0"), val = tensor<int32, []>(1)];
            tensor<fp16, [136, 816, 1, 1]> const_87_to_fp16 = const()[name = tensor<string, []>("const_87_to_fp16"), val = tensor<fp16, [136, 816, 1, 1]>(BLOBFILE(path = tensor<string, []>("@model_path/weights/weight.bin"), offset = tensor<uint64, []>(1860160)))];
            tensor<fp16, [136]> const_88_to_fp16 = const()[name = tensor<string, []>("const_88_to_fp16"), val = tensor<fp16, [136]>(BLOBFILE(path = tensor<string, []>("@model_path/weights/weight.bin"), offset = tensor<uint64, []>(2082176)))];
            tensor<fp16, [1, 136, 16, 16]> first_19_cast_fp16 = conv(bias = const_88_to_fp16, dilations = input_231_dilations_0, groups = input_231_groups_0, pad = input_231_pad_0, pad_type = input_231_pad_type_0, strides = input_231_strides_0, weight = const_87_to_fp16, x = input_229_cast_fp16)[name = tensor<string, []>("first_19_cast_fp16")];
            tensor<fp16, [1, 136, 16, 16]> input_233_cast_fp16 = add(x = first_19_cast_fp16, y = input_217_cast_fp16)[name = tensor<string, []>("input_233_cast_fp16")];
            tensor<string, []> input_235_pad_type_0 = const()[name = tensor<string, []>("input_235_pad_type_0"), val = tensor<string, []>("valid")];
            tensor<int32, [2]> input_235_strides_0 = const()[name = tensor<string, []>("input_235_strides_0"), val = tensor<int32, [2]>([1, 1])];
            tensor<int32, [4]> input_235_pad_0 = const()[name = tensor<string, []>("input_235_pad_0"), val = tensor<int32, [4]>([0, 0, 0, 0])];
            tensor<int32, [2]> input_235_dilations_0 = const()[name = tensor<string, []>("input_235_dilations_0"), val = tensor<int32, [2]>([1, 1])];
            tensor<int32, []> input_235_groups_0 = const()[name = tensor<string, []>("input_235_groups_0"), val = tensor<int32, []>(1)];
            tensor<fp16, [816, 136, 1, 1]> const_89_to_fp16 = const()[name = tensor<string, []>("const_89_to_fp16"), val = tensor<fp16, [816, 136, 1, 1]>(BLOBFILE(path = tensor<string, []>("@model_path/weights/weight.bin"), offset = tensor<uint64, []>(2082560)))];
            tensor<fp16, [816]> const_90_to_fp16 = const()[name = tensor<string, []>("const_90_to_fp16"), val = tensor<fp16, [816]>(BLOBFILE(path = tensor<string, []>("@model_path/weights/weight.bin"), offset = tensor<uint64, []>(2304576)))];
            tensor<fp16, [1, 816, 16, 16]> input_237_cast_fp16 = conv(bias = const_90_to_fp16, dilations = input_235_dilations_0, groups = input_235_groups_0, pad = input_235_pad_0, pad_type = input_235_pad_type_0, strides = input_235_strides_0, weight = const_89_to_fp16, x = input_233_cast_fp16)[name = tensor<string, []>("input_237_cast_fp16")];
            tensor<fp16, []> input_239_alpha_0_to_fp16 = const()[name = tensor<string, []>("input_239_alpha_0_to_fp16"), val = tensor<fp16, []>(0x0p+0)];
            tensor<fp16, []> input_239_beta_0_to_fp16 = const()[name = tensor<string, []>("input_239_beta_0_to_fp16"), val = tensor<fp16, []>(0x1.8p+2)];
            tensor<fp16, [1, 816, 16, 16]> input_239_cast_fp16 = clip(alpha = input_239_alpha_0_to_fp16, beta = input_239_beta_0_to_fp16, x = input_237_cast_fp16)[name = tensor<string, []>("input_239_cast_fp16")];
            tensor<string, []> input_241_pad_type_0 = const()[name = tensor<string, []>("input_241_pad_type_0"), val = tensor<string, []>("custom")];
            tensor<int32, [4]> input_241_pad_0 = const()[name = tensor<string, []>("input_241_pad_0"), val = tensor<int32, [4]>([2, 2, 2, 2])];
            tensor<int32, []> input_241_groups_0 = const()[name = tensor<string, []>("input_241_groups_0"), val = tensor<int32, []>(816)];
            tensor<int32, [2]> input_241_strides_0 = const()[name = tensor<string, []>("input_241_strides_0"), val = tensor<int32, [2]>([1, 1])];
            tensor<int32, [2]> input_241_dilations_0 = const()[name = tensor<string, []>("input_241_dilations_0"), val = tensor<int32, [2]>([1, 1])];
            tensor<fp16, [816, 1, 5, 5]> const_91_to_fp16 = const()[name = tensor<string, []>("const_91_to_fp16"), val = tensor<fp16, [816, 1, 5, 5]>(BLOBFILE(path = tensor<string, []>("@model_path/weights/weight.bin"), offset = tensor<uint64, []>(2306304)))];
            tensor<fp16, [816]> const_92_to_fp16 = const()[name = tensor<string, []>("const_92_to_fp16"), val = tensor<fp16, [816]>(BLOBFILE(path = tensor<string, []>("@model_path/weights/weight.bin"), offset = tensor<uint64, []>(2347200)))];
            tensor<fp16, [1, 816, 16, 16]> input_243_cast_fp16 = conv(bias = const_92_to_fp16, dilations = input_241_dilations_0, groups = input_241_groups_0, pad = input_241_pad_0, pad_type = input_241_pad_type_0, strides = input_241_strides_0, weight = const_91_to_fp16, x = input_239_cast_fp16)[name = tensor<string, []>("input_243_cast_fp16")];
            tensor<fp16, []> input_245_alpha_0_to_fp16 = const()[name = tensor<string, []>("input_245_alpha_0_to_fp16"), val = tensor<fp16, []>(0x0p+0)];
            tensor<fp16, []> input_245_beta_0_to_fp16 = const()[name = tensor<string, []>("input_245_beta_0_to_fp16"), val = tensor<fp16, []>(0x1.8p+2)];
            tensor<fp16, [1, 816, 16, 16]> input_245_cast_fp16 = clip(alpha = input_245_alpha_0_to_fp16, beta = input_245_beta_0_to_fp16, x = input_243_cast_fp16)[name = tensor<string, []>("input_245_cast_fp16")];
            tensor<string, []> input_247_pad_type_0 = const()[name = tensor<string, []>("input_247_pad_type_0"), val = tensor<string, []>("valid")];
            tensor<int32, [2]> input_247_strides_0 = const()[name = tensor<string, []>("input_247_strides_0"), val = tensor<int32, [2]>([1, 1])];
            tensor<int32, [4]> input_247_pad_0 = const()[name = tensor<string, []>("input_247_pad_0"), val = tensor<int32, [4]>([0, 0, 0, 0])];
            tensor<int32, [2]> input_247_dilations_0 = const()[name = tensor<string, []>("input_247_dilations_0"), val = tensor<int32, [2]>([1, 1])];
            tensor<int32, []> input_247_groups_0 = const()[name = tensor<string, []>("input_247_groups_0"), val = tensor<int32, []>(1)];
            tensor<fp16, [136, 816, 1, 1]> const_93_to_fp16 = const()[name = tensor<string, []>("const_93_to_fp16"), val = tensor<fp16, [136, 816, 1, 1]>(BLOBFILE(path = tensor<string, []>("@model_path/weights/weight.bin"), offset = tensor<uint64, []>(2348928)))];
            tensor<fp16, [136]> const_94_to_fp16 = const()[name = tensor<string, []>("const_94_to_fp16"), val = tensor<fp16, [136]>(BLOBFILE(path = tensor<string, []>("@model_path/weights/weight.bin"), offset = tensor<uint64, []>(2570944)))];
            tensor<fp16, [1, 136, 16, 16]> first_21_cast_fp16 = conv(bias = const_94_to_fp16, dilations = input_247_dilations_0, groups = input_247_groups_0, pad = input_247_pad_0, pad_type = input_247_pad_type_0, strides = input_247_strides_0, weight = const_93_to_fp16, x = input_245_cast_fp16)[name = tensor<string, []>("first_21_cast_fp16")];
            tensor<fp16, [1, 136, 16, 16]> input_249_cast_fp16 = add(x = first_21_cast_fp16, y = input_233_cast_fp16)[name = tensor<string, []>("input_249_cast_fp16")];
            tensor<string, []> input_251_pad_type_0 = const()[name = tensor<string, []>("input_251_pad_type_0"), val = tensor<string, []>("valid")];
            tensor<int32, [2]> input_251_strides_0 = const()[name = tensor<string, []>("input_251_strides_0"), val = tensor<int32, [2]>([1, 1])];
            tensor<int32, [4]> input_251_pad_0 = const()[name = tensor<string, []>("input_251_pad_0"), val = tensor<int32, [4]>([0, 0, 0, 0])];
            tensor<int32, [2]> input_251_dilations_0 = const()[name = tensor<string, []>("input_251_dilations_0"), val = tensor<int32, [2]>([1, 1])];
            tensor<int32, []> input_251_groups_0 = const()[name = tensor<string, []>("input_251_groups_0"), val = tensor<int32, []>(1)];
            tensor<fp16, [816, 136, 1, 1]> const_95_to_fp16 = const()[name = tensor<string, []>("const_95_to_fp16"), val = tensor<fp16, [816, 136, 1, 1]>(BLOBFILE(path = tensor<string, []>("@model_path/weights/weight.bin"), offset = tensor<uint64, []>(2571328)))];
            tensor<fp16, [816]> const_96_to_fp16 = const()[name = tensor<string, []>("const_96_to_fp16"), val = tensor<fp16, [816]>(BLOBFILE(path = tensor<string, []>("@model_path/weights/weight.bin"), offset = tensor<uint64, []>(2793344)))];
            tensor<fp16, [1, 816, 16, 16]> input_253_cast_fp16 = conv(bias = const_96_to_fp16, dilations = input_251_dilations_0, groups = input_251_groups_0, pad = input_251_pad_0, pad_type = input_251_pad_type_0, strides = input_251_strides_0, weight = const_95_to_fp16, x = input_249_cast_fp16)[name = tensor<string, []>("input_253_cast_fp16")];
            tensor<fp16, []> input_255_alpha_0_to_fp16 = const()[name = tensor<string, []>("input_255_alpha_0_to_fp16"), val = tensor<fp16, []>(0x0p+0)];
            tensor<fp16, []> input_255_beta_0_to_fp16 = const()[name = tensor<string, []>("input_255_beta_0_to_fp16"), val = tensor<fp16, []>(0x1.8p+2)];
            tensor<fp16, [1, 816, 16, 16]> input_255_cast_fp16 = clip(alpha = input_255_alpha_0_to_fp16, beta = input_255_beta_0_to_fp16, x = input_253_cast_fp16)[name = tensor<string, []>("input_255_cast_fp16")];
            tensor<string, []> input_257_pad_type_0 = const()[name = tensor<string, []>("input_257_pad_type_0"), val = tensor<string, []>("custom")];
            tensor<int32, [4]> input_257_pad_0 = const()[name = tensor<string, []>("input_257_pad_0"), val = tensor<int32, [4]>([2, 2, 2, 2])];
            tensor<int32, []> input_257_groups_0 = const()[name = tensor<string, []>("input_257_groups_0"), val = tensor<int32, []>(816)];
            tensor<int32, [2]> input_257_strides_0 = const()[name = tensor<string, []>("input_257_strides_0"), val = tensor<int32, [2]>([1, 1])];
            tensor<int32, [2]> input_257_dilations_0 = const()[name = tensor<string, []>("input_257_dilations_0"), val = tensor<int32, [2]>([1, 1])];
            tensor<fp16, [816, 1, 5, 5]> const_97_to_fp16 = const()[name = tensor<string, []>("const_97_to_fp16"), val = tensor<fp16, [816, 1, 5, 5]>(BLOBFILE(path = tensor<string, []>("@model_path/weights/weight.bin"), offset = tensor<uint64, []>(2795072)))];
            tensor<fp16, [816]> const_98_to_fp16 = const()[name = tensor<string, []>("const_98_to_fp16"), val = tensor<fp16, [816]>(BLOBFILE(path = tensor<string, []>("@model_path/weights/weight.bin"), offset = tensor<uint64, []>(2835968)))];
            tensor<fp16, [1, 816, 16, 16]> input_259_cast_fp16 = conv(bias = const_98_to_fp16, dilations = input_257_dilations_0, groups = input_257_groups_0, pad = input_257_pad_0, pad_type = input_257_pad_type_0, strides = input_257_strides_0, weight = const_97_to_fp16, x = input_255_cast_fp16)[name = tensor<string, []>("input_259_cast_fp16")];
            tensor<fp16, []> input_261_alpha_0_to_fp16 = const()[name = tensor<string, []>("input_261_alpha_0_to_fp16"), val = tensor<fp16, []>(0x0p+0)];
            tensor<fp16, []> input_261_beta_0_to_fp16 = const()[name = tensor<string, []>("input_261_beta_0_to_fp16"), val = tensor<fp16, []>(0x1.8p+2)];
            tensor<fp16, [1, 816, 16, 16]> input_261_cast_fp16 = clip(alpha = input_261_alpha_0_to_fp16, beta = input_261_beta_0_to_fp16, x = input_259_cast_fp16)[name = tensor<string, []>("input_261_cast_fp16")];
            tensor<string, []> input_263_pad_type_0 = const()[name = tensor<string, []>("input_263_pad_type_0"), val = tensor<string, []>("valid")];
            tensor<int32, [2]> input_263_strides_0 = const()[name = tensor<string, []>("input_263_strides_0"), val = tensor<int32, [2]>([1, 1])];
            tensor<int32, [4]> input_263_pad_0 = const()[name = tensor<string, []>("input_263_pad_0"), val = tensor<int32, [4]>([0, 0, 0, 0])];
            tensor<int32, [2]> input_263_dilations_0 = const()[name = tensor<string, []>("input_263_dilations_0"), val = tensor<int32, [2]>([1, 1])];
            tensor<int32, []> input_263_groups_0 = const()[name = tensor<string, []>("input_263_groups_0"), val = tensor<int32, []>(1)];
            tensor<fp16, [136, 816, 1, 1]> const_99_to_fp16 = const()[name = tensor<string, []>("const_99_to_fp16"), val = tensor<fp16, [136, 816, 1, 1]>(BLOBFILE(path = tensor<string, []>("@model_path/weights/weight.bin"), offset = tensor<uint64, []>(2837696)))];
            tensor<fp16, [136]> const_100_to_fp16 = const()[name = tensor<string, []>("const_100_to_fp16"), val = tensor<fp16, [136]>(BLOBFILE(path = tensor<string, []>("@model_path/weights/weight.bin"), offset = tensor<uint64, []>(3059712)))];
            tensor<fp16, [1, 136, 16, 16]> first_23_cast_fp16 = conv(bias = const_100_to_fp16, dilations = input_263_dilations_0, groups = input_263_groups_0, pad = input_263_pad_0, pad_type = input_263_pad_type_0, strides = input_263_strides_0, weight = const_99_to_fp16, x = input_261_cast_fp16)[name = tensor<string, []>("first_23_cast_fp16")];
            tensor<fp16, [1, 136, 16, 16]> input_265_cast_fp16 = add(x = first_23_cast_fp16, y = input_249_cast_fp16)[name = tensor<string, []>("input_265_cast_fp16")];
            tensor<string, []> input_267_pad_type_0 = const()[name = tensor<string, []>("input_267_pad_type_0"), val = tensor<string, []>("valid")];
            tensor<int32, [2]> input_267_strides_0 = const()[name = tensor<string, []>("input_267_strides_0"), val = tensor<int32, [2]>([1, 1])];
            tensor<int32, [4]> input_267_pad_0 = const()[name = tensor<string, []>("input_267_pad_0"), val = tensor<int32, [4]>([0, 0, 0, 0])];
            tensor<int32, [2]> input_267_dilations_0 = const()[name = tensor<string, []>("input_267_dilations_0"), val = tensor<int32, [2]>([1, 1])];
            tensor<int32, []> input_267_groups_0 = const()[name = tensor<string, []>("input_267_groups_0"), val = tensor<int32, []>(1)];
            tensor<fp16, [816, 136, 1, 1]> const_101_to_fp16 = const()[name = tensor<string, []>("const_101_to_fp16"), val = tensor<fp16, [816, 136, 1, 1]>(BLOBFILE(path = tensor<string, []>("@model_path/weights/weight.bin"), offset = tensor<uint64, []>(3060096)))];
            tensor<fp16, [816]> const_102_to_fp16 = const()[name = tensor<string, []>("const_102_to_fp16"), val = tensor<fp16, [816]>(BLOBFILE(path = tensor<string, []>("@model_path/weights/weight.bin"), offset = tensor<uint64, []>(3282112)))];
            tensor<fp16, [1, 816, 16, 16]> input_269_cast_fp16 = conv(bias = const_102_to_fp16, dilations = input_267_dilations_0, groups = input_267_groups_0, pad = input_267_pad_0, pad_type = input_267_pad_type_0, strides = input_267_strides_0, weight = const_101_to_fp16, x = input_265_cast_fp16)[name = tensor<string, []>("input_269_cast_fp16")];
            tensor<fp16, []> input_271_alpha_0_to_fp16 = const()[name = tensor<string, []>("input_271_alpha_0_to_fp16"), val = tensor<fp16, []>(0x0p+0)];
            tensor<fp16, []> input_271_beta_0_to_fp16 = const()[name = tensor<string, []>("input_271_beta_0_to_fp16"), val = tensor<fp16, []>(0x1.8p+2)];
            tensor<fp16, [1, 816, 16, 16]> input_271_cast_fp16 = clip(alpha = input_271_alpha_0_to_fp16, beta = input_271_beta_0_to_fp16, x = input_269_cast_fp16)[name = tensor<string, []>("input_271_cast_fp16")];
            tensor<string, []> input_273_pad_type_0 = const()[name = tensor<string, []>("input_273_pad_type_0"), val = tensor<string, []>("custom")];
            tensor<int32, [4]> input_273_pad_0 = const()[name = tensor<string, []>("input_273_pad_0"), val = tensor<int32, [4]>([2, 2, 2, 2])];
            tensor<int32, []> input_273_groups_0 = const()[name = tensor<string, []>("input_273_groups_0"), val = tensor<int32, []>(816)];
            tensor<int32, [2]> input_273_strides_0 = const()[name = tensor<string, []>("input_273_strides_0"), val = tensor<int32, [2]>([1, 1])];
            tensor<int32, [2]> input_273_dilations_0 = const()[name = tensor<string, []>("input_273_dilations_0"), val = tensor<int32, [2]>([1, 1])];
            tensor<fp16, [816, 1, 5, 5]> const_103_to_fp16 = const()[name = tensor<string, []>("const_103_to_fp16"), val = tensor<fp16, [816, 1, 5, 5]>(BLOBFILE(path = tensor<string, []>("@model_path/weights/weight.bin"), offset = tensor<uint64, []>(3283840)))];
            tensor<fp16, [816]> const_104_to_fp16 = const()[name = tensor<string, []>("const_104_to_fp16"), val = tensor<fp16, [816]>(BLOBFILE(path = tensor<string, []>("@model_path/weights/weight.bin"), offset = tensor<uint64, []>(3324736)))];
            tensor<fp16, [1, 816, 16, 16]> input_275_cast_fp16 = conv(bias = const_104_to_fp16, dilations = input_273_dilations_0, groups = input_273_groups_0, pad = input_273_pad_0, pad_type = input_273_pad_type_0, strides = input_273_strides_0, weight = const_103_to_fp16, x = input_271_cast_fp16)[name = tensor<string, []>("input_275_cast_fp16")];
            tensor<fp16, []> input_277_alpha_0_to_fp16 = const()[name = tensor<string, []>("input_277_alpha_0_to_fp16"), val = tensor<fp16, []>(0x0p+0)];
            tensor<fp16, []> input_277_beta_0_to_fp16 = const()[name = tensor<string, []>("input_277_beta_0_to_fp16"), val = tensor<fp16, []>(0x1.8p+2)];
            tensor<fp16, [1, 816, 16, 16]> input_277_cast_fp16 = clip(alpha = input_277_alpha_0_to_fp16, beta = input_277_beta_0_to_fp16, x = input_275_cast_fp16)[name = tensor<string, []>("input_277_cast_fp16")];
            tensor<string, []> input_279_pad_type_0 = const()[name = tensor<string, []>("input_279_pad_type_0"), val = tensor<string, []>("valid")];
            tensor<int32, [2]> input_279_strides_0 = const()[name = tensor<string, []>("input_279_strides_0"), val = tensor<int32, [2]>([1, 1])];
            tensor<int32, [4]> input_279_pad_0 = const()[name = tensor<string, []>("input_279_pad_0"), val = tensor<int32, [4]>([0, 0, 0, 0])];
            tensor<int32, [2]> input_279_dilations_0 = const()[name = tensor<string, []>("input_279_dilations_0"), val = tensor<int32, [2]>([1, 1])];
            tensor<int32, []> input_279_groups_0 = const()[name = tensor<string, []>("input_279_groups_0"), val = tensor<int32, []>(1)];
            tensor<fp16, [136, 816, 1, 1]> const_105_to_fp16 = const()[name = tensor<string, []>("const_105_to_fp16"), val = tensor<fp16, [136, 816, 1, 1]>(BLOBFILE(path = tensor<string, []>("@model_path/weights/weight.bin"), offset = tensor<uint64, []>(3326464)))];
            tensor<fp16, [136]> const_106_to_fp16 = const()[name = tensor<string, []>("const_106_to_fp16"), val = tensor<fp16, [136]>(BLOBFILE(path = tensor<string, []>("@model_path/weights/weight.bin"), offset = tensor<uint64, []>(3548480)))];
            tensor<fp16, [1, 136, 16, 16]> first_25_cast_fp16 = conv(bias = const_106_to_fp16, dilations = input_279_dilations_0, groups = input_279_groups_0, pad = input_279_pad_0, pad_type = input_279_pad_type_0, strides = input_279_strides_0, weight = const_105_to_fp16, x = input_277_cast_fp16)[name = tensor<string, []>("first_25_cast_fp16")];
            tensor<fp16, [1, 136, 16, 16]> input_281_cast_fp16 = add(x = first_25_cast_fp16, y = input_265_cast_fp16)[name = tensor<string, []>("input_281_cast_fp16")];
            tensor<string, []> input_283_pad_type_0 = const()[name = tensor<string, []>("input_283_pad_type_0"), val = tensor<string, []>("valid")];
            tensor<int32, [2]> input_283_strides_0 = const()[name = tensor<string, []>("input_283_strides_0"), val = tensor<int32, [2]>([1, 1])];
            tensor<int32, [4]> input_283_pad_0 = const()[name = tensor<string, []>("input_283_pad_0"), val = tensor<int32, [4]>([0, 0, 0, 0])];
            tensor<int32, [2]> input_283_dilations_0 = const()[name = tensor<string, []>("input_283_dilations_0"), val = tensor<int32, [2]>([1, 1])];
            tensor<int32, []> input_283_groups_0 = const()[name = tensor<string, []>("input_283_groups_0"), val = tensor<int32, []>(1)];
            tensor<fp16, [816, 136, 1, 1]> const_107_to_fp16 = const()[name = tensor<string, []>("const_107_to_fp16"), val = tensor<fp16, [816, 136, 1, 1]>(BLOBFILE(path = tensor<string, []>("@model_path/weights/weight.bin"), offset = tensor<uint64, []>(3548864)))];
            tensor<fp16, [816]> const_108_to_fp16 = const()[name = tensor<string, []>("const_108_to_fp16"), val = tensor<fp16, [816]>(BLOBFILE(path = tensor<string, []>("@model_path/weights/weight.bin"), offset = tensor<uint64, []>(3770880)))];
            tensor<fp16, [1, 816, 16, 16]> input_285_cast_fp16 = conv(bias = const_108_to_fp16, dilations = input_283_dilations_0, groups = input_283_groups_0, pad = input_283_pad_0, pad_type = input_283_pad_type_0, strides = input_283_strides_0, weight = const_107_to_fp16, x = input_281_cast_fp16)[name = tensor<string, []>("input_285_cast_fp16")];
            tensor<fp16, []> input_287_alpha_0_to_fp16 = const()[name = tensor<string, []>("input_287_alpha_0_to_fp16"), val = tensor<fp16, []>(0x0p+0)];
            tensor<fp16, []> input_287_beta_0_to_fp16 = const()[name = tensor<string, []>("input_287_beta_0_to_fp16"), val = tensor<fp16, []>(0x1.8p+2)];
            tensor<fp16, [1, 816, 16, 16]> input_287_cast_fp16 = clip(alpha = input_287_alpha_0_to_fp16, beta = input_287_beta_0_to_fp16, x = input_285_cast_fp16)[name = tensor<string, []>("input_287_cast_fp16")];
            tensor<int32, [8]> input_289_pad_0 = const()[name = tensor<string, []>("input_289_pad_0"), val = tensor<int32, [8]>([0, 0, 0, 0, 1, 2, 1, 2])];
            tensor<string, []> input_289_mode_0 = const()[name = tensor<string, []>("input_289_mode_0"), val = tensor<string, []>("constant")];
            tensor<fp16, []> const_4_to_fp16 = const()[name = tensor<string, []>("const_4_to_fp16"), val = tensor<fp16, []>(0x0p+0)];
            tensor<fp16, [1, 816, 19, 19]> input_289_cast_fp16 = pad(constant_val = const_4_to_fp16, mode = input_289_mode_0, pad = input_289_pad_0, x = input_287_cast_fp16)[name = tensor<string, []>("input_289_cast_fp16")];
            tensor<string, []> input_291_pad_type_0 = const()[name = tensor<string, []>("input_291_pad_type_0"), val = tensor<string, []>("valid")];
            tensor<int32, [2]> input_291_strides_0 = const()[name = tensor<string, []>("input_291_strides_0"), val = tensor<int32, [2]>([2, 2])];
            tensor<int32, []> input_291_groups_0 = const()[name = tensor<string, []>("input_291_groups_0"), val = tensor<int32, []>(816)];
            tensor<int32, [4]> input_291_pad_0 = const()[name = tensor<string, []>("input_291_pad_0"), val = tensor<int32, [4]>([0, 0, 0, 0])];
            tensor<int32, [2]> input_291_dilations_0 = const()[name = tensor<string, []>("input_291_dilations_0"), val = tensor<int32, [2]>([1, 1])];
            tensor<fp16, [816, 1, 5, 5]> const_109_to_fp16 = const()[name = tensor<string, []>("const_109_to_fp16"), val = tensor<fp16, [816, 1, 5, 5]>(BLOBFILE(path = tensor<string, []>("@model_path/weights/weight.bin"), offset = tensor<uint64, []>(3772608)))];
            tensor<fp16, [816]> const_110_to_fp16 = const()[name = tensor<string, []>("const_110_to_fp16"), val = tensor<fp16, [816]>(BLOBFILE(path = tensor<string, []>("@model_path/weights/weight.bin"), offset = tensor<uint64, []>(3813504)))];
            tensor<fp16, [1, 816, 8, 8]> input_293_cast_fp16 = conv(bias = const_110_to_fp16, dilations = input_291_dilations_0, groups = input_291_groups_0, pad = input_291_pad_0, pad_type = input_291_pad_type_0, strides = input_291_strides_0, weight = const_109_to_fp16, x = input_289_cast_fp16)[name = tensor<string, []>("input_293_cast_fp16")];
            tensor<fp16, []> input_295_alpha_0_to_fp16 = const()[name = tensor<string, []>("input_295_alpha_0_to_fp16"), val = tensor<fp16, []>(0x0p+0)];
            tensor<fp16, []> input_295_beta_0_to_fp16 = const()[name = tensor<string, []>("input_295_beta_0_to_fp16"), val = tensor<fp16, []>(0x1.8p+2)];
            tensor<fp16, [1, 816, 8, 8]> input_295_cast_fp16 = clip(alpha = input_295_alpha_0_to_fp16, beta = input_295_beta_0_to_fp16, x = input_293_cast_fp16)[name = tensor<string, []>("input_295_cast_fp16")];
            tensor<string, []> input_297_pad_type_0 = const()[name = tensor<string, []>("input_297_pad_type_0"), val = tensor<string, []>("valid")];
            tensor<int32, [2]> input_297_strides_0 = const()[name = tensor<string, []>("input_297_strides_0"), val = tensor<int32, [2]>([1, 1])];
            tensor<int32, [4]> input_297_pad_0 = const()[name = tensor<string, []>("input_297_pad_0"), val = tensor<int32, [4]>([0, 0, 0, 0])];
            tensor<int32, [2]> input_297_dilations_0 = const()[name = tensor<string, []>("input_297_dilations_0"), val = tensor<int32, [2]>([1, 1])];
            tensor<int32, []> input_297_groups_0 = const()[name = tensor<string, []>("input_297_groups_0"), val = tensor<int32, []>(1)];
            tensor<fp16, [232, 816, 1, 1]> const_111_to_fp16 = const()[name = tensor<string, []>("const_111_to_fp16"), val = tensor<fp16, [232, 816, 1, 1]>(BLOBFILE(path = tensor<string, []>("@model_path/weights/weight.bin"), offset = tensor<uint64, []>(3815232)))];
            tensor<fp16, [232]> const_112_to_fp16 = const()[name = tensor<string, []>("const_112_to_fp16"), val = tensor<fp16, [232]>(BLOBFILE(path = tensor<string, []>("@model_path/weights/weight.bin"), offset = tensor<uint64, []>(4193920)))];
            tensor<fp16, [1, 232, 8, 8]> input_299_cast_fp16 = conv(bias = const_112_to_fp16, dilations = input_297_dilations_0, groups = input_297_groups_0, pad = input_297_pad_0, pad_type = input_297_pad_type_0, strides = input_297_strides_0, weight = const_111_to_fp16, x = input_295_cast_fp16)[name = tensor<string, []>("input_299_cast_fp16")];
            tensor<string, []> input_301_pad_type_0 = const()[name = tensor<string, []>("input_301_pad_type_0"), val = tensor<string, []>("valid")];
            tensor<int32, [2]> input_301_strides_0 = const()[name = tensor<string, []>("input_301_strides_0"), val = tensor<int32, [2]>([1, 1])];
            tensor<int32, [4]> input_301_pad_0 = const()[name = tensor<string, []>("input_301_pad_0"), val = tensor<int32, [4]>([0, 0, 0, 0])];
            tensor<int32, [2]> input_301_dilations_0 = const()[name = tensor<string, []>("input_301_dilations_0"), val = tensor<int32, [2]>([1, 1])];
            tensor<int32, []> input_301_groups_0 = const()[name = tensor<string, []>("input_301_groups_0"), val = tensor<int32, []>(1)];
            tensor<fp16, [1392, 232, 1, 1]> const_113_to_fp16 = const()[name = tensor<string, []>("const_113_to_fp16"), val = tensor<fp16, [1392, 232, 1, 1]>(BLOBFILE(path = tensor<string, []>("@model_path/weights/weight.bin"), offset = tensor<uint64, []>(4194496)))];
            tensor<fp16, [1392]> const_114_to_fp16 = const()[name = tensor<string, []>("const_114_to_fp16"), val = tensor<fp16, [1392]>(BLOBFILE(path = tensor<string, []>("@model_path/weights/weight.bin"), offset = tensor<uint64, []>(4840448)))];
            tensor<fp16, [1, 1392, 8, 8]> input_303_cast_fp16 = conv(bias = const_114_to_fp16, dilations = input_301_dilations_0, groups = input_301_groups_0, pad = input_301_pad_0, pad_type = input_301_pad_type_0, strides = input_301_strides_0, weight = const_113_to_fp16, x = input_299_cast_fp16)[name = tensor<string, []>("input_303_cast_fp16")];
            tensor<fp16, []> input_305_alpha_0_to_fp16 = const()[name = tensor<string, []>("input_305_alpha_0_to_fp16"), val = tensor<fp16, []>(0x0p+0)];
            tensor<fp16, []> input_305_beta_0_to_fp16 = const()[name = tensor<string, []>("input_305_beta_0_to_fp16"), val = tensor<fp16, []>(0x1.8p+2)];
            tensor<fp16, [1, 1392, 8, 8]> input_305_cast_fp16 = clip(alpha = input_305_alpha_0_to_fp16, beta = input_305_beta_0_to_fp16, x = input_303_cast_fp16)[name = tensor<string, []>("input_305_cast_fp16")];
            tensor<string, []> input_307_pad_type_0 = const()[name = tensor<string, []>("input_307_pad_type_0"), val = tensor<string, []>("custom")];
            tensor<int32, [4]> input_307_pad_0 = const()[name = tensor<string, []>("input_307_pad_0"), val = tensor<int32, [4]>([2, 2, 2, 2])];
            tensor<int32, []> input_307_groups_0 = const()[name = tensor<string, []>("input_307_groups_0"), val = tensor<int32, []>(1392)];
            tensor<int32, [2]> input_307_strides_0 = const()[name = tensor<string, []>("input_307_strides_0"), val = tensor<int32, [2]>([1, 1])];
            tensor<int32, [2]> input_307_dilations_0 = const()[name = tensor<string, []>("input_307_dilations_0"), val = tensor<int32, [2]>([1, 1])];
            tensor<fp16, [1392, 1, 5, 5]> const_115_to_fp16 = const()[name = tensor<string, []>("const_115_to_fp16"), val = tensor<fp16, [1392, 1, 5, 5]>(BLOBFILE(path = tensor<string, []>("@model_path/weights/weight.bin"), offset = tensor<uint64, []>(4843328)))];
            tensor<fp16, [1392]> const_116_to_fp16 = const()[name = tensor<string, []>("const_116_to_fp16"), val = tensor<fp16, [1392]>(BLOBFILE(path = tensor<string, []>("@model_path/weights/weight.bin"), offset = tensor<uint64, []>(4913024)))];
            tensor<fp16, [1, 1392, 8, 8]> input_309_cast_fp16 = conv(bias = const_116_to_fp16, dilations = input_307_dilations_0, groups = input_307_groups_0, pad = input_307_pad_0, pad_type = input_307_pad_type_0, strides = input_307_strides_0, weight = const_115_to_fp16, x = input_305_cast_fp16)[name = tensor<string, []>("input_309_cast_fp16")];
            tensor<fp16, []> input_311_alpha_0_to_fp16 = const()[name = tensor<string, []>("input_311_alpha_0_to_fp16"), val = tensor<fp16, []>(0x0p+0)];
            tensor<fp16, []> input_311_beta_0_to_fp16 = const()[name = tensor<string, []>("input_311_beta_0_to_fp16"), val = tensor<fp16, []>(0x1.8p+2)];
            tensor<fp16, [1, 1392, 8, 8]> input_311_cast_fp16 = clip(alpha = input_311_alpha_0_to_fp16, beta = input_311_beta_0_to_fp16, x = input_309_cast_fp16)[name = tensor<string, []>("input_311_cast_fp16")];
            tensor<string, []> input_313_pad_type_0 = const()[name = tensor<string, []>("input_313_pad_type_0"), val = tensor<string, []>("valid")];
            tensor<int32, [2]> input_313_strides_0 = const()[name = tensor<string, []>("input_313_strides_0"), val = tensor<int32, [2]>([1, 1])];
            tensor<int32, [4]> input_313_pad_0 = const()[name = tensor<string, []>("input_313_pad_0"), val = tensor<int32, [4]>([0, 0, 0, 0])];
            tensor<int32, [2]> input_313_dilations_0 = const()[name = tensor<string, []>("input_313_dilations_0"), val = tensor<int32, [2]>([1, 1])];
            tensor<int32, []> input_313_groups_0 = const()[name = tensor<string, []>("input_313_groups_0"), val = tensor<int32, []>(1)];
            tensor<fp16, [232, 1392, 1, 1]> const_117_to_fp16 = const()[name = tensor<string, []>("const_117_to_fp16"), val = tensor<fp16, [232, 1392, 1, 1]>(BLOBFILE(path = tensor<string, []>("@model_path/weights/weight.bin"), offset = tensor<uint64, []>(4915904)))];
            tensor<fp16, [232]> const_118_to_fp16 = const()[name = tensor<string, []>("const_118_to_fp16"), val = tensor<fp16, [232]>(BLOBFILE(path = tensor<string, []>("@model_path/weights/weight.bin"), offset = tensor<uint64, []>(5561856)))];
            tensor<fp16, [1, 232, 8, 8]> first_27_cast_fp16 = conv(bias = const_118_to_fp16, dilations = input_313_dilations_0, groups = input_313_groups_0, pad = input_313_pad_0, pad_type = input_313_pad_type_0, strides = input_313_strides_0, weight = const_117_to_fp16, x = input_311_cast_fp16)[name = tensor<string, []>("first_27_cast_fp16")];
            tensor<fp16, [1, 232, 8, 8]> input_315_cast_fp16 = add(x = first_27_cast_fp16, y = input_299_cast_fp16)[name = tensor<string, []>("input_315_cast_fp16")];
            tensor<string, []> input_317_pad_type_0 = const()[name = tensor<string, []>("input_317_pad_type_0"), val = tensor<string, []>("valid")];
            tensor<int32, [2]> input_317_strides_0 = const()[name = tensor<string, []>("input_317_strides_0"), val = tensor<int32, [2]>([1, 1])];
            tensor<int32, [4]> input_317_pad_0 = const()[name = tensor<string, []>("input_317_pad_0"), val = tensor<int32, [4]>([0, 0, 0, 0])];
            tensor<int32, [2]> input_317_dilations_0 = const()[name = tensor<string, []>("input_317_dilations_0"), val = tensor<int32, [2]>([1, 1])];
            tensor<int32, []> input_317_groups_0 = const()[name = tensor<string, []>("input_317_groups_0"), val = tensor<int32, []>(1)];
            tensor<fp16, [1392, 232, 1, 1]> const_119_to_fp16 = const()[name = tensor<string, []>("const_119_to_fp16"), val = tensor<fp16, [1392, 232, 1, 1]>(BLOBFILE(path = tensor<string, []>("@model_path/weights/weight.bin"), offset = tensor<uint64, []>(5562432)))];
            tensor<fp16, [1392]> const_120_to_fp16 = const()[name = tensor<string, []>("const_120_to_fp16"), val = tensor<fp16, [1392]>(BLOBFILE(path = tensor<string, []>("@model_path/weights/weight.bin"), offset = tensor<uint64, []>(6208384)))];
            tensor<fp16, [1, 1392, 8, 8]> input_319_cast_fp16 = conv(bias = const_120_to_fp16, dilations = input_317_dilations_0, groups = input_317_groups_0, pad = input_317_pad_0, pad_type = input_317_pad_type_0, strides = input_317_strides_0, weight = const_119_to_fp16, x = input_315_cast_fp16)[name = tensor<string, []>("input_319_cast_fp16")];
            tensor<fp16, []> input_321_alpha_0_to_fp16 = const()[name = tensor<string, []>("input_321_alpha_0_to_fp16"), val = tensor<fp16, []>(0x0p+0)];
            tensor<fp16, []> input_321_beta_0_to_fp16 = const()[name = tensor<string, []>("input_321_beta_0_to_fp16"), val = tensor<fp16, []>(0x1.8p+2)];
            tensor<fp16, [1, 1392, 8, 8]> input_321_cast_fp16 = clip(alpha = input_321_alpha_0_to_fp16, beta = input_321_beta_0_to_fp16, x = input_319_cast_fp16)[name = tensor<string, []>("input_321_cast_fp16")];
            tensor<string, []> input_323_pad_type_0 = const()[name = tensor<string, []>("input_323_pad_type_0"), val = tensor<string, []>("custom")];
            tensor<int32, [4]> input_323_pad_0 = const()[name = tensor<string, []>("input_323_pad_0"), val = tensor<int32, [4]>([2, 2, 2, 2])];
            tensor<int32, []> input_323_groups_0 = const()[name = tensor<string, []>("input_323_groups_0"), val = tensor<int32, []>(1392)];
            tensor<int32, [2]> input_323_strides_0 = const()[name = tensor<string, []>("input_323_strides_0"), val = tensor<int32, [2]>([1, 1])];
            tensor<int32, [2]> input_323_dilations_0 = const()[name = tensor<string, []>("input_323_dilations_0"), val = tensor<int32, [2]>([1, 1])];
            tensor<fp16, [1392, 1, 5, 5]> const_121_to_fp16 = const()[name = tensor<string, []>("const_121_to_fp16"), val = tensor<fp16, [1392, 1, 5, 5]>(BLOBFILE(path = tensor<string, []>("@model_path/weights/weight.bin"), offset = tensor<uint64, []>(6211264)))];
            tensor<fp16, [1392]> const_122_to_fp16 = const()[name = tensor<string, []>("const_122_to_fp16"), val = tensor<fp16, [1392]>(BLOBFILE(path = tensor<string, []>("@model_path/weights/weight.bin"), offset = tensor<uint64, []>(6280960)))];
            tensor<fp16, [1, 1392, 8, 8]> input_325_cast_fp16 = conv(bias = const_122_to_fp16, dilations = input_323_dilations_0, groups = input_323_groups_0, pad = input_323_pad_0, pad_type = input_323_pad_type_0, strides = input_323_strides_0, weight = const_121_to_fp16, x = input_321_cast_fp16)[name = tensor<string, []>("input_325_cast_fp16")];
            tensor<fp16, []> input_327_alpha_0_to_fp16 = const()[name = tensor<string, []>("input_327_alpha_0_to_fp16"), val = tensor<fp16, []>(0x0p+0)];
            tensor<fp16, []> input_327_beta_0_to_fp16 = const()[name = tensor<string, []>("input_327_beta_0_to_fp16"), val = tensor<fp16, []>(0x1.8p+2)];
            tensor<fp16, [1, 1392, 8, 8]> input_327_cast_fp16 = clip(alpha = input_327_alpha_0_to_fp16, beta = input_327_beta_0_to_fp16, x = input_325_cast_fp16)[name = tensor<string, []>("input_327_cast_fp16")];
            tensor<string, []> input_329_pad_type_0 = const()[name = tensor<string, []>("input_329_pad_type_0"), val = tensor<string, []>("valid")];
            tensor<int32, [2]> input_329_strides_0 = const()[name = tensor<string, []>("input_329_strides_0"), val = tensor<int32, [2]>([1, 1])];
            tensor<int32, [4]> input_329_pad_0 = const()[name = tensor<string, []>("input_329_pad_0"), val = tensor<int32, [4]>([0, 0, 0, 0])];
            tensor<int32, [2]> input_329_dilations_0 = const()[name = tensor<string, []>("input_329_dilations_0"), val = tensor<int32, [2]>([1, 1])];
            tensor<int32, []> input_329_groups_0 = const()[name = tensor<string, []>("input_329_groups_0"), val = tensor<int32, []>(1)];
            tensor<fp16, [232, 1392, 1, 1]> const_123_to_fp16 = const()[name = tensor<string, []>("const_123_to_fp16"), val = tensor<fp16, [232, 1392, 1, 1]>(BLOBFILE(path = tensor<string, []>("@model_path/weights/weight.bin"), offset = tensor<uint64, []>(6283840)))];
            tensor<fp16, [232]> const_124_to_fp16 = const()[name = tensor<string, []>("const_124_to_fp16"), val = tensor<fp16, [232]>(BLOBFILE(path = tensor<string, []>("@model_path/weights/weight.bin"), offset = tensor<uint64, []>(6929792)))];
            tensor<fp16, [1, 232, 8, 8]> first_29_cast_fp16 = conv(bias = const_124_to_fp16, dilations = input_329_dilations_0, groups = input_329_groups_0, pad = input_329_pad_0, pad_type = input_329_pad_type_0, strides = input_329_strides_0, weight = const_123_to_fp16, x = input_327_cast_fp16)[name = tensor<string, []>("first_29_cast_fp16")];
            tensor<fp16, [1, 232, 8, 8]> input_331_cast_fp16 = add(x = first_29_cast_fp16, y = input_315_cast_fp16)[name = tensor<string, []>("input_331_cast_fp16")];
            tensor<string, []> input_333_pad_type_0 = const()[name = tensor<string, []>("input_333_pad_type_0"), val = tensor<string, []>("valid")];
            tensor<int32, [2]> input_333_strides_0 = const()[name = tensor<string, []>("input_333_strides_0"), val = tensor<int32, [2]>([1, 1])];
            tensor<int32, [4]> input_333_pad_0 = const()[name = tensor<string, []>("input_333_pad_0"), val = tensor<int32, [4]>([0, 0, 0, 0])];
            tensor<int32, [2]> input_333_dilations_0 = const()[name = tensor<string, []>("input_333_dilations_0"), val = tensor<int32, [2]>([1, 1])];
            tensor<int32, []> input_333_groups_0 = const()[name = tensor<string, []>("input_333_groups_0"), val = tensor<int32, []>(1)];
            tensor<fp16, [1392, 232, 1, 1]> const_125_to_fp16 = const()[name = tensor<string, []>("const_125_to_fp16"), val = tensor<fp16, [1392, 232, 1, 1]>(BLOBFILE(path = tensor<string, []>("@model_path/weights/weight.bin"), offset = tensor<uint64, []>(6930368)))];
            tensor<fp16, [1392]> const_126_to_fp16 = const()[name = tensor<string, []>("const_126_to_fp16"), val = tensor<fp16, [1392]>(BLOBFILE(path = tensor<string, []>("@model_path/weights/weight.bin"), offset = tensor<uint64, []>(7576320)))];
            tensor<fp16, [1, 1392, 8, 8]> input_335_cast_fp16 = conv(bias = const_126_to_fp16, dilations = input_333_dilations_0, groups = input_333_groups_0, pad = input_333_pad_0, pad_type = input_333_pad_type_0, strides = input_333_strides_0, weight = const_125_to_fp16, x = input_331_cast_fp16)[name = tensor<string, []>("input_335_cast_fp16")];
            tensor<fp16, []> input_337_alpha_0_to_fp16 = const()[name = tensor<string, []>("input_337_alpha_0_to_fp16"), val = tensor<fp16, []>(0x0p+0)];
            tensor<fp16, []> input_337_beta_0_to_fp16 = const()[name = tensor<string, []>("input_337_beta_0_to_fp16"), val = tensor<fp16, []>(0x1.8p+2)];
            tensor<fp16, [1, 1392, 8, 8]> input_337_cast_fp16 = clip(alpha = input_337_alpha_0_to_fp16, beta = input_337_beta_0_to_fp16, x = input_335_cast_fp16)[name = tensor<string, []>("input_337_cast_fp16")];
            tensor<string, []> input_339_pad_type_0 = const()[name = tensor<string, []>("input_339_pad_type_0"), val = tensor<string, []>("custom")];
            tensor<int32, [4]> input_339_pad_0 = const()[name = tensor<string, []>("input_339_pad_0"), val = tensor<int32, [4]>([2, 2, 2, 2])];
            tensor<int32, []> input_339_groups_0 = const()[name = tensor<string, []>("input_339_groups_0"), val = tensor<int32, []>(1392)];
            tensor<int32, [2]> input_339_strides_0 = const()[name = tensor<string, []>("input_339_strides_0"), val = tensor<int32, [2]>([1, 1])];
            tensor<int32, [2]> input_339_dilations_0 = const()[name = tensor<string, []>("input_339_dilations_0"), val = tensor<int32, [2]>([1, 1])];
            tensor<fp16, [1392, 1, 5, 5]> const_127_to_fp16 = const()[name = tensor<string, []>("const_127_to_fp16"), val = tensor<fp16, [1392, 1, 5, 5]>(BLOBFILE(path = tensor<string, []>("@model_path/weights/weight.bin"), offset = tensor<uint64, []>(7579200)))];
            tensor<fp16, [1392]> const_128_to_fp16 = const()[name = tensor<string, []>("const_128_to_fp16"), val = tensor<fp16, [1392]>(BLOBFILE(path = tensor<string, []>("@model_path/weights/weight.bin"), offset = tensor<uint64, []>(7648896)))];
            tensor<fp16, [1, 1392, 8, 8]> input_341_cast_fp16 = conv(bias = const_128_to_fp16, dilations = input_339_dilations_0, groups = input_339_groups_0, pad = input_339_pad_0, pad_type = input_339_pad_type_0, strides = input_339_strides_0, weight = const_127_to_fp16, x = input_337_cast_fp16)[name = tensor<string, []>("input_341_cast_fp16")];
            tensor<fp16, []> input_343_alpha_0_to_fp16 = const()[name = tensor<string, []>("input_343_alpha_0_to_fp16"), val = tensor<fp16, []>(0x0p+0)];
            tensor<fp16, []> input_343_beta_0_to_fp16 = const()[name = tensor<string, []>("input_343_beta_0_to_fp16"), val = tensor<fp16, []>(0x1.8p+2)];
            tensor<fp16, [1, 1392, 8, 8]> input_343_cast_fp16 = clip(alpha = input_343_alpha_0_to_fp16, beta = input_343_beta_0_to_fp16, x = input_341_cast_fp16)[name = tensor<string, []>("input_343_cast_fp16")];
            tensor<string, []> input_345_pad_type_0 = const()[name = tensor<string, []>("input_345_pad_type_0"), val = tensor<string, []>("valid")];
            tensor<int32, [2]> input_345_strides_0 = const()[name = tensor<string, []>("input_345_strides_0"), val = tensor<int32, [2]>([1, 1])];
            tensor<int32, [4]> input_345_pad_0 = const()[name = tensor<string, []>("input_345_pad_0"), val = tensor<int32, [4]>([0, 0, 0, 0])];
            tensor<int32, [2]> input_345_dilations_0 = const()[name = tensor<string, []>("input_345_dilations_0"), val = tensor<int32, [2]>([1, 1])];
            tensor<int32, []> input_345_groups_0 = const()[name = tensor<string, []>("input_345_groups_0"), val = tensor<int32, []>(1)];
            tensor<fp16, [232, 1392, 1, 1]> const_129_to_fp16 = const()[name = tensor<string, []>("const_129_to_fp16"), val = tensor<fp16, [232, 1392, 1, 1]>(BLOBFILE(path = tensor<string, []>("@model_path/weights/weight.bin"), offset = tensor<uint64, []>(7651776)))];
            tensor<fp16, [232]> const_130_to_fp16 = const()[name = tensor<string, []>("const_130_to_fp16"), val = tensor<fp16, [232]>(BLOBFILE(path = tensor<string, []>("@model_path/weights/weight.bin"), offset = tensor<uint64, []>(8297728)))];
            tensor<fp16, [1, 232, 8, 8]> first_31_cast_fp16 = conv(bias = const_130_to_fp16, dilations = input_345_dilations_0, groups = input_345_groups_0, pad = input_345_pad_0, pad_type = input_345_pad_type_0, strides = input_345_strides_0, weight = const_129_to_fp16, x = input_343_cast_fp16)[name = tensor<string, []>("first_31_cast_fp16")];
            tensor<fp16, [1, 232, 8, 8]> input_347_cast_fp16 = add(x = first_31_cast_fp16, y = input_331_cast_fp16)[name = tensor<string, []>("input_347_cast_fp16")];
            tensor<string, []> input_349_pad_type_0 = const()[name = tensor<string, []>("input_349_pad_type_0"), val = tensor<string, []>("valid")];
            tensor<int32, [2]> input_349_strides_0 = const()[name = tensor<string, []>("input_349_strides_0"), val = tensor<int32, [2]>([1, 1])];
            tensor<int32, [4]> input_349_pad_0 = const()[name = tensor<string, []>("input_349_pad_0"), val = tensor<int32, [4]>([0, 0, 0, 0])];
            tensor<int32, [2]> input_349_dilations_0 = const()[name = tensor<string, []>("input_349_dilations_0"), val = tensor<int32, [2]>([1, 1])];
            tensor<int32, []> input_349_groups_0 = const()[name = tensor<string, []>("input_349_groups_0"), val = tensor<int32, []>(1)];
            tensor<fp16, [1392, 232, 1, 1]> const_131_to_fp16 = const()[name = tensor<string, []>("const_131_to_fp16"), val = tensor<fp16, [1392, 232, 1, 1]>(BLOBFILE(path = tensor<string, []>("@model_path/weights/weight.bin"), offset = tensor<uint64, []>(8298304)))];
            tensor<fp16, [1392]> const_132_to_fp16 = const()[name = tensor<string, []>("const_132_to_fp16"), val = tensor<fp16, [1392]>(BLOBFILE(path = tensor<string, []>("@model_path/weights/weight.bin"), offset = tensor<uint64, []>(8944256)))];
            tensor<fp16, [1, 1392, 8, 8]> input_351_cast_fp16 = conv(bias = const_132_to_fp16, dilations = input_349_dilations_0, groups = input_349_groups_0, pad = input_349_pad_0, pad_type = input_349_pad_type_0, strides = input_349_strides_0, weight = const_131_to_fp16, x = input_347_cast_fp16)[name = tensor<string, []>("input_351_cast_fp16")];
            tensor<fp16, []> input_353_alpha_0_to_fp16 = const()[name = tensor<string, []>("input_353_alpha_0_to_fp16"), val = tensor<fp16, []>(0x0p+0)];
            tensor<fp16, []> input_353_beta_0_to_fp16 = const()[name = tensor<string, []>("input_353_beta_0_to_fp16"), val = tensor<fp16, []>(0x1.8p+2)];
            tensor<fp16, [1, 1392, 8, 8]> input_353_cast_fp16 = clip(alpha = input_353_alpha_0_to_fp16, beta = input_353_beta_0_to_fp16, x = input_351_cast_fp16)[name = tensor<string, []>("input_353_cast_fp16")];
            tensor<string, []> input_355_pad_type_0 = const()[name = tensor<string, []>("input_355_pad_type_0"), val = tensor<string, []>("custom")];
            tensor<int32, [4]> input_355_pad_0 = const()[name = tensor<string, []>("input_355_pad_0"), val = tensor<int32, [4]>([2, 2, 2, 2])];
            tensor<int32, []> input_355_groups_0 = const()[name = tensor<string, []>("input_355_groups_0"), val = tensor<int32, []>(1392)];
            tensor<int32, [2]> input_355_strides_0 = const()[name = tensor<string, []>("input_355_strides_0"), val = tensor<int32, [2]>([1, 1])];
            tensor<int32, [2]> input_355_dilations_0 = const()[name = tensor<string, []>("input_355_dilations_0"), val = tensor<int32, [2]>([1, 1])];
            tensor<fp16, [1392, 1, 5, 5]> const_133_to_fp16 = const()[name = tensor<string, []>("const_133_to_fp16"), val = tensor<fp16, [1392, 1, 5, 5]>(BLOBFILE(path = tensor<string, []>("@model_path/weights/weight.bin"), offset = tensor<uint64, []>(8947136)))];
            tensor<fp16, [1392]> const_134_to_fp16 = const()[name = tensor<string, []>("const_134_to_fp16"), val = tensor<fp16, [1392]>(BLOBFILE(path = tensor<string, []>("@model_path/weights/weight.bin"), offset = tensor<uint64, []>(9016832)))];
            tensor<fp16, [1, 1392, 8, 8]> input_357_cast_fp16 = conv(bias = const_134_to_fp16, dilations = input_355_dilations_0, groups = input_355_groups_0, pad = input_355_pad_0, pad_type = input_355_pad_type_0, strides = input_355_strides_0, weight = const_133_to_fp16, x = input_353_cast_fp16)[name = tensor<string, []>("input_357_cast_fp16")];
            tensor<fp16, []> input_359_alpha_0_to_fp16 = const()[name = tensor<string, []>("input_359_alpha_0_to_fp16"), val = tensor<fp16, []>(0x0p+0)];
            tensor<fp16, []> input_359_beta_0_to_fp16 = const()[name = tensor<string, []>("input_359_beta_0_to_fp16"), val = tensor<fp16, []>(0x1.8p+2)];
            tensor<fp16, [1, 1392, 8, 8]> input_359_cast_fp16 = clip(alpha = input_359_alpha_0_to_fp16, beta = input_359_beta_0_to_fp16, x = input_357_cast_fp16)[name = tensor<string, []>("input_359_cast_fp16")];
            tensor<string, []> input_361_pad_type_0 = const()[name = tensor<string, []>("input_361_pad_type_0"), val = tensor<string, []>("valid")];
            tensor<int32, [2]> input_361_strides_0 = const()[name = tensor<string, []>("input_361_strides_0"), val = tensor<int32, [2]>([1, 1])];
            tensor<int32, [4]> input_361_pad_0 = const()[name = tensor<string, []>("input_361_pad_0"), val = tensor<int32, [4]>([0, 0, 0, 0])];
            tensor<int32, [2]> input_361_dilations_0 = const()[name = tensor<string, []>("input_361_dilations_0"), val = tensor<int32, [2]>([1, 1])];
            tensor<int32, []> input_361_groups_0 = const()[name = tensor<string, []>("input_361_groups_0"), val = tensor<int32, []>(1)];
            tensor<fp16, [232, 1392, 1, 1]> const_135_to_fp16 = const()[name = tensor<string, []>("const_135_to_fp16"), val = tensor<fp16, [232, 1392, 1, 1]>(BLOBFILE(path = tensor<string, []>("@model_path/weights/weight.bin"), offset = tensor<uint64, []>(9019712)))];
            tensor<fp16, [232]> const_136_to_fp16 = const()[name = tensor<string, []>("const_136_to_fp16"), val = tensor<fp16, [232]>(BLOBFILE(path = tensor<string, []>("@model_path/weights/weight.bin"), offset = tensor<uint64, []>(9665664)))];
            tensor<fp16, [1, 232, 8, 8]> first_33_cast_fp16 = conv(bias = const_136_to_fp16, dilations = input_361_dilations_0, groups = input_361_groups_0, pad = input_361_pad_0, pad_type = input_361_pad_type_0, strides = input_361_strides_0, weight = const_135_to_fp16, x = input_359_cast_fp16)[name = tensor<string, []>("first_33_cast_fp16")];
            tensor<fp16, [1, 232, 8, 8]> input_363_cast_fp16 = add(x = first_33_cast_fp16, y = input_347_cast_fp16)[name = tensor<string, []>("input_363_cast_fp16")];
            tensor<string, []> input_365_pad_type_0 = const()[name = tensor<string, []>("input_365_pad_type_0"), val = tensor<string, []>("valid")];
            tensor<int32, [2]> input_365_strides_0 = const()[name = tensor<string, []>("input_365_strides_0"), val = tensor<int32, [2]>([1, 1])];
            tensor<int32, [4]> input_365_pad_0 = const()[name = tensor<string, []>("input_365_pad_0"), val = tensor<int32, [4]>([0, 0, 0, 0])];
            tensor<int32, [2]> input_365_dilations_0 = const()[name = tensor<string, []>("input_365_dilations_0"), val = tensor<int32, [2]>([1, 1])];
            tensor<int32, []> input_365_groups_0 = const()[name = tensor<string, []>("input_365_groups_0"), val = tensor<int32, []>(1)];
            tensor<fp16, [1392, 232, 1, 1]> const_137_to_fp16 = const()[name = tensor<string, []>("const_137_to_fp16"), val = tensor<fp16, [1392, 232, 1, 1]>(BLOBFILE(path = tensor<string, []>("@model_path/weights/weight.bin"), offset = tensor<uint64, []>(9666240)))];
            tensor<fp16, [1392]> const_138_to_fp16 = const()[name = tensor<string, []>("const_138_to_fp16"), val = tensor<fp16, [1392]>(BLOBFILE(path = tensor<string, []>("@model_path/weights/weight.bin"), offset = tensor<uint64, []>(10312192)))];
            tensor<fp16, [1, 1392, 8, 8]> input_367_cast_fp16 = conv(bias = const_138_to_fp16, dilations = input_365_dilations_0, groups = input_365_groups_0, pad = input_365_pad_0, pad_type = input_365_pad_type_0, strides = input_365_strides_0, weight = const_137_to_fp16, x = input_363_cast_fp16)[name = tensor<string, []>("input_367_cast_fp16")];
            tensor<fp16, []> input_369_alpha_0_to_fp16 = const()[name = tensor<string, []>("input_369_alpha_0_to_fp16"), val = tensor<fp16, []>(0x0p+0)];
            tensor<fp16, []> input_369_beta_0_to_fp16 = const()[name = tensor<string, []>("input_369_beta_0_to_fp16"), val = tensor<fp16, []>(0x1.8p+2)];
            tensor<fp16, [1, 1392, 8, 8]> input_369_cast_fp16 = clip(alpha = input_369_alpha_0_to_fp16, beta = input_369_beta_0_to_fp16, x = input_367_cast_fp16)[name = tensor<string, []>("input_369_cast_fp16")];
            tensor<string, []> input_371_pad_type_0 = const()[name = tensor<string, []>("input_371_pad_type_0"), val = tensor<string, []>("custom")];
            tensor<int32, [4]> input_371_pad_0 = const()[name = tensor<string, []>("input_371_pad_0"), val = tensor<int32, [4]>([2, 2, 2, 2])];
            tensor<int32, []> input_371_groups_0 = const()[name = tensor<string, []>("input_371_groups_0"), val = tensor<int32, []>(1392)];
            tensor<int32, [2]> input_371_strides_0 = const()[name = tensor<string, []>("input_371_strides_0"), val = tensor<int32, [2]>([1, 1])];
            tensor<int32, [2]> input_371_dilations_0 = const()[name = tensor<string, []>("input_371_dilations_0"), val = tensor<int32, [2]>([1, 1])];
            tensor<fp16, [1392, 1, 5, 5]> const_139_to_fp16 = const()[name = tensor<string, []>("const_139_to_fp16"), val = tensor<fp16, [1392, 1, 5, 5]>(BLOBFILE(path = tensor<string, []>("@model_path/weights/weight.bin"), offset = tensor<uint64, []>(10315072)))];
            tensor<fp16, [1392]> const_140_to_fp16 = const()[name = tensor<string, []>("const_140_to_fp16"), val = tensor<fp16, [1392]>(BLOBFILE(path = tensor<string, []>("@model_path/weights/weight.bin"), offset = tensor<uint64, []>(10384768)))];
            tensor<fp16, [1, 1392, 8, 8]> input_373_cast_fp16 = conv(bias = const_140_to_fp16, dilations = input_371_dilations_0, groups = input_371_groups_0, pad = input_371_pad_0, pad_type = input_371_pad_type_0, strides = input_371_strides_0, weight = const_139_to_fp16, x = input_369_cast_fp16)[name = tensor<string, []>("input_373_cast_fp16")];
            tensor<fp16, []> input_375_alpha_0_to_fp16 = const()[name = tensor<string, []>("input_375_alpha_0_to_fp16"), val = tensor<fp16, []>(0x0p+0)];
            tensor<fp16, []> input_375_beta_0_to_fp16 = const()[name = tensor<string, []>("input_375_beta_0_to_fp16"), val = tensor<fp16, []>(0x1.8p+2)];
            tensor<fp16, [1, 1392, 8, 8]> input_375_cast_fp16 = clip(alpha = input_375_alpha_0_to_fp16, beta = input_375_beta_0_to_fp16, x = input_373_cast_fp16)[name = tensor<string, []>("input_375_cast_fp16")];
            tensor<string, []> input_377_pad_type_0 = const()[name = tensor<string, []>("input_377_pad_type_0"), val = tensor<string, []>("valid")];
            tensor<int32, [2]> input_377_strides_0 = const()[name = tensor<string, []>("input_377_strides_0"), val = tensor<int32, [2]>([1, 1])];
            tensor<int32, [4]> input_377_pad_0 = const()[name = tensor<string, []>("input_377_pad_0"), val = tensor<int32, [4]>([0, 0, 0, 0])];
            tensor<int32, [2]> input_377_dilations_0 = const()[name = tensor<string, []>("input_377_dilations_0"), val = tensor<int32, [2]>([1, 1])];
            tensor<int32, []> input_377_groups_0 = const()[name = tensor<string, []>("input_377_groups_0"), val = tensor<int32, []>(1)];
            tensor<fp16, [232, 1392, 1, 1]> const_141_to_fp16 = const()[name = tensor<string, []>("const_141_to_fp16"), val = tensor<fp16, [232, 1392, 1, 1]>(BLOBFILE(path = tensor<string, []>("@model_path/weights/weight.bin"), offset = tensor<uint64, []>(10387648)))];
            tensor<fp16, [232]> const_142_to_fp16 = const()[name = tensor<string, []>("const_142_to_fp16"), val = tensor<fp16, [232]>(BLOBFILE(path = tensor<string, []>("@model_path/weights/weight.bin"), offset = tensor<uint64, []>(11033600)))];
            tensor<fp16, [1, 232, 8, 8]> first_35_cast_fp16 = conv(bias = const_142_to_fp16, dilations = input_377_dilations_0, groups = input_377_groups_0, pad = input_377_pad_0, pad_type = input_377_pad_type_0, strides = input_377_strides_0, weight = const_141_to_fp16, x = input_375_cast_fp16)[name = tensor<string, []>("first_35_cast_fp16")];
            tensor<fp16, [1, 232, 8, 8]> input_379_cast_fp16 = add(x = first_35_cast_fp16, y = input_363_cast_fp16)[name = tensor<string, []>("input_379_cast_fp16")];
            tensor<string, []> input_381_pad_type_0 = const()[name = tensor<string, []>("input_381_pad_type_0"), val = tensor<string, []>("valid")];
            tensor<int32, [2]> input_381_strides_0 = const()[name = tensor<string, []>("input_381_strides_0"), val = tensor<int32, [2]>([1, 1])];
            tensor<int32, [4]> input_381_pad_0 = const()[name = tensor<string, []>("input_381_pad_0"), val = tensor<int32, [4]>([0, 0, 0, 0])];
            tensor<int32, [2]> input_381_dilations_0 = const()[name = tensor<string, []>("input_381_dilations_0"), val = tensor<int32, [2]>([1, 1])];
            tensor<int32, []> input_381_groups_0 = const()[name = tensor<string, []>("input_381_groups_0"), val = tensor<int32, []>(1)];
            tensor<fp16, [1392, 232, 1, 1]> const_143_to_fp16 = const()[name = tensor<string, []>("const_143_to_fp16"), val = tensor<fp16, [1392, 232, 1, 1]>(BLOBFILE(path = tensor<string, []>("@model_path/weights/weight.bin"), offset = tensor<uint64, []>(11034176)))];
            tensor<fp16, [1392]> const_144_to_fp16 = const()[name = tensor<string, []>("const_144_to_fp16"), val = tensor<fp16, [1392]>(BLOBFILE(path = tensor<string, []>("@model_path/weights/weight.bin"), offset = tensor<uint64, []>(11680128)))];
            tensor<fp16, [1, 1392, 8, 8]> input_383_cast_fp16 = conv(bias = const_144_to_fp16, dilations = input_381_dilations_0, groups = input_381_groups_0, pad = input_381_pad_0, pad_type = input_381_pad_type_0, strides = input_381_strides_0, weight = const_143_to_fp16, x = input_379_cast_fp16)[name = tensor<string, []>("input_383_cast_fp16")];
            tensor<fp16, []> input_385_alpha_0_to_fp16 = const()[name = tensor<string, []>("input_385_alpha_0_to_fp16"), val = tensor<fp16, []>(0x0p+0)];
            tensor<fp16, []> input_385_beta_0_to_fp16 = const()[name = tensor<string, []>("input_385_beta_0_to_fp16"), val = tensor<fp16, []>(0x1.8p+2)];
            tensor<fp16, [1, 1392, 8, 8]> input_385_cast_fp16 = clip(alpha = input_385_alpha_0_to_fp16, beta = input_385_beta_0_to_fp16, x = input_383_cast_fp16)[name = tensor<string, []>("input_385_cast_fp16")];
            tensor<string, []> input_387_pad_type_0 = const()[name = tensor<string, []>("input_387_pad_type_0"), val = tensor<string, []>("custom")];
            tensor<int32, [4]> input_387_pad_0 = const()[name = tensor<string, []>("input_387_pad_0"), val = tensor<int32, [4]>([1, 1, 1, 1])];
            tensor<int32, []> input_387_groups_0 = const()[name = tensor<string, []>("input_387_groups_0"), val = tensor<int32, []>(1392)];
            tensor<int32, [2]> input_387_strides_0 = const()[name = tensor<string, []>("input_387_strides_0"), val = tensor<int32, [2]>([1, 1])];
            tensor<int32, [2]> input_387_dilations_0 = const()[name = tensor<string, []>("input_387_dilations_0"), val = tensor<int32, [2]>([1, 1])];
            tensor<fp16, [1392, 1, 3, 3]> const_145_to_fp16 = const()[name = tensor<string, []>("const_145_to_fp16"), val = tensor<fp16, [1392, 1, 3, 3]>(BLOBFILE(path = tensor<string, []>("@model_path/weights/weight.bin"), offset = tensor<uint64, []>(11683008)))];
            tensor<fp16, [1392]> const_146_to_fp16 = const()[name = tensor<string, []>("const_146_to_fp16"), val = tensor<fp16, [1392]>(BLOBFILE(path = tensor<string, []>("@model_path/weights/weight.bin"), offset = tensor<uint64, []>(11708160)))];
            tensor<fp16, [1, 1392, 8, 8]> input_389_cast_fp16 = conv(bias = const_146_to_fp16, dilations = input_387_dilations_0, groups = input_387_groups_0, pad = input_387_pad_0, pad_type = input_387_pad_type_0, strides = input_387_strides_0, weight = const_145_to_fp16, x = input_385_cast_fp16)[name = tensor<string, []>("input_389_cast_fp16")];
            tensor<fp16, []> input_391_alpha_0_to_fp16 = const()[name = tensor<string, []>("input_391_alpha_0_to_fp16"), val = tensor<fp16, []>(0x0p+0)];
            tensor<fp16, []> input_391_beta_0_to_fp16 = const()[name = tensor<string, []>("input_391_beta_0_to_fp16"), val = tensor<fp16, []>(0x1.8p+2)];
            tensor<fp16, [1, 1392, 8, 8]> input_391_cast_fp16 = clip(alpha = input_391_alpha_0_to_fp16, beta = input_391_beta_0_to_fp16, x = input_389_cast_fp16)[name = tensor<string, []>("input_391_cast_fp16")];
            tensor<string, []> input_393_pad_type_0 = const()[name = tensor<string, []>("input_393_pad_type_0"), val = tensor<string, []>("valid")];
            tensor<int32, [2]> input_393_strides_0 = const()[name = tensor<string, []>("input_393_strides_0"), val = tensor<int32, [2]>([1, 1])];
            tensor<int32, [4]> input_393_pad_0 = const()[name = tensor<string, []>("input_393_pad_0"), val = tensor<int32, [4]>([0, 0, 0, 0])];
            tensor<int32, [2]> input_393_dilations_0 = const()[name = tensor<string, []>("input_393_dilations_0"), val = tensor<int32, [2]>([1, 1])];
            tensor<int32, []> input_393_groups_0 = const()[name = tensor<string, []>("input_393_groups_0"), val = tensor<int32, []>(1)];
            tensor<fp16, [384, 1392, 1, 1]> const_147_to_fp16 = const()[name = tensor<string, []>("const_147_to_fp16"), val = tensor<fp16, [384, 1392, 1, 1]>(BLOBFILE(path = tensor<string, []>("@model_path/weights/weight.bin"), offset = tensor<uint64, []>(11711040)))];
            tensor<fp16, [384]> const_148_to_fp16 = const()[name = tensor<string, []>("const_148_to_fp16"), val = tensor<fp16, [384]>(BLOBFILE(path = tensor<string, []>("@model_path/weights/weight.bin"), offset = tensor<uint64, []>(12780160)))];
            tensor<fp16, [1, 384, 8, 8]> input_395_cast_fp16 = conv(bias = const_148_to_fp16, dilations = input_393_dilations_0, groups = input_393_groups_0, pad = input_393_pad_0, pad_type = input_393_pad_type_0, strides = input_393_strides_0, weight = const_147_to_fp16, x = input_391_cast_fp16)[name = tensor<string, []>("input_395_cast_fp16")];
            tensor<string, []> input_449_pad_type_0 = const()[name = tensor<string, []>("input_449_pad_type_0"), val = tensor<string, []>("custom")];
            tensor<int32, [4]> input_449_pad_0 = const()[name = tensor<string, []>("input_449_pad_0"), val = tensor<int32, [4]>([1, 1, 1, 1])];
            tensor<int32, [2]> input_449_strides_0 = const()[name = tensor<string, []>("input_449_strides_0"), val = tensor<int32, [2]>([1, 1])];
            tensor<int32, [2]> input_449_dilations_0 = const()[name = tensor<string, []>("input_449_dilations_0"), val = tensor<int32, [2]>([1, 1])];
            tensor<int32, []> input_449_groups_0 = const()[name = tensor<string, []>("input_449_groups_0"), val = tensor<int32, []>(1)];
            tensor<fp16, [64, 32, 3, 3]> Conv_218_weight_to_fp16 = const()[name = tensor<string, []>("Conv_218_weight_to_fp16"), val = tensor<fp16, [64, 32, 3, 3]>(BLOBFILE(path = tensor<string, []>("@model_path/weights/weight.bin"), offset = tensor<uint64, []>(12780992)))];
            tensor<fp16, [1, 64, 64, 64]> input_449_cast_fp16 = conv(dilations = input_449_dilations_0, groups = input_449_groups_0, pad = input_449_pad_0, pad_type = input_449_pad_type_0, strides = input_449_strides_0, weight = Conv_218_weight_to_fp16, x = input_69_cast_fp16)[name = tensor<string, []>("input_449_cast_fp16")];
            tensor<string, []> input_429_pad_type_0 = const()[name = tensor<string, []>("input_429_pad_type_0"), val = tensor<string, []>("custom")];
            tensor<int32, [4]> input_429_pad_0 = const()[name = tensor<string, []>("input_429_pad_0"), val = tensor<int32, [4]>([1, 1, 1, 1])];
            tensor<int32, [2]> input_429_strides_0 = const()[name = tensor<string, []>("input_429_strides_0"), val = tensor<int32, [2]>([1, 1])];
            tensor<int32, [2]> input_429_dilations_0 = const()[name = tensor<string, []>("input_429_dilations_0"), val = tensor<int32, [2]>([1, 1])];
            tensor<int32, []> input_429_groups_0 = const()[name = tensor<string, []>("input_429_groups_0"), val = tensor<int32, []>(1)];
            tensor<fp16, [128, 48, 3, 3]> Conv_219_weight_to_fp16 = const()[name = tensor<string, []>("Conv_219_weight_to_fp16"), val = tensor<fp16, [128, 48, 3, 3]>(BLOBFILE(path = tensor<string, []>("@model_path/weights/weight.bin"), offset = tensor<uint64, []>(12817920)))];
            tensor<fp16, [1, 128, 32, 32]> input_429_cast_fp16 = conv(dilations = input_429_dilations_0, groups = input_429_groups_0, pad = input_429_pad_0, pad_type = input_429_pad_type_0, strides = input_429_strides_0, weight = Conv_219_weight_to_fp16, x = input_119_cast_fp16)[name = tensor<string, []>("input_429_cast_fp16")];
            tensor<string, []> input_409_pad_type_0 = const()[name = tensor<string, []>("input_409_pad_type_0"), val = tensor<string, []>("custom")];
            tensor<int32, [4]> input_409_pad_0 = const()[name = tensor<string, []>("input_409_pad_0"), val = tensor<int32, [4]>([1, 1, 1, 1])];
            tensor<int32, [2]> input_409_strides_0 = const()[name = tensor<string, []>("input_409_strides_0"), val = tensor<int32, [2]>([1, 1])];
            tensor<int32, [2]> input_409_dilations_0 = const()[name = tensor<string, []>("input_409_dilations_0"), val = tensor<int32, [2]>([1, 1])];
            tensor<int32, []> input_409_groups_0 = const()[name = tensor<string, []>("input_409_groups_0"), val = tensor<int32, []>(1)];
            tensor<fp16, [256, 136, 3, 3]> Conv_220_weight_to_fp16 = const()[name = tensor<string, []>("Conv_220_weight_to_fp16"), val = tensor<fp16, [256, 136, 3, 3]>(BLOBFILE(path = tensor<string, []>("@model_path/weights/weight.bin"), offset = tensor<uint64, []>(12928576)))];
            tensor<fp16, [1, 256, 16, 16]> input_409_cast_fp16 = conv(dilations = input_409_dilations_0, groups = input_409_groups_0, pad = input_409_pad_0, pad_type = input_409_pad_type_0, strides = input_409_strides_0, weight = Conv_220_weight_to_fp16, x = input_281_cast_fp16)[name = tensor<string, []>("input_409_cast_fp16")];
            tensor<string, []> input_397_pad_type_0 = const()[name = tensor<string, []>("input_397_pad_type_0"), val = tensor<string, []>("custom")];
            tensor<int32, [4]> input_397_pad_0 = const()[name = tensor<string, []>("input_397_pad_0"), val = tensor<int32, [4]>([1, 1, 1, 1])];
            tensor<int32, [2]> input_397_strides_0 = const()[name = tensor<string, []>("input_397_strides_0"), val = tensor<int32, [2]>([1, 1])];
            tensor<int32, [2]> input_397_dilations_0 = const()[name = tensor<string, []>("input_397_dilations_0"), val = tensor<int32, [2]>([1, 1])];
            tensor<int32, []> input_397_groups_0 = const()[name = tensor<string, []>("input_397_groups_0"), val = tensor<int32, []>(1)];
            tensor<fp16, [512, 384, 3, 3]> Conv_221_weight_to_fp16 = const()[name = tensor<string, []>("Conv_221_weight_to_fp16"), val = tensor<fp16, [512, 384, 3, 3]>(BLOBFILE(path = tensor<string, []>("@model_path/weights/weight.bin"), offset = tensor<uint64, []>(13555328)))];
            tensor<fp16, [1, 512, 8, 8]> input_397_cast_fp16 = conv(dilations = input_397_dilations_0, groups = input_397_groups_0, pad = input_397_pad_0, pad_type = input_397_pad_type_0, strides = input_397_strides_0, weight = Conv_221_weight_to_fp16, x = input_395_cast_fp16)[name = tensor<string, []>("input_397_cast_fp16")];
            tensor<fp16, [1, 512, 8, 8]> input_399_cast_fp16 = relu(x = input_397_cast_fp16)[name = tensor<string, []>("input_399_cast_fp16")];
            tensor<string, []> input_401_pad_type_0 = const()[name = tensor<string, []>("input_401_pad_type_0"), val = tensor<string, []>("custom")];
            tensor<int32, [4]> input_401_pad_0 = const()[name = tensor<string, []>("input_401_pad_0"), val = tensor<int32, [4]>([1, 1, 1, 1])];
            tensor<int32, [2]> input_401_strides_0 = const()[name = tensor<string, []>("input_401_strides_0"), val = tensor<int32, [2]>([1, 1])];
            tensor<int32, [2]> input_401_dilations_0 = const()[name = tensor<string, []>("input_401_dilations_0"), val = tensor<int32, [2]>([1, 1])];
            tensor<int32, []> input_401_groups_0 = const()[name = tensor<string, []>("input_401_groups_0"), val = tensor<int32, []>(1)];
            tensor<fp16, [512, 512, 3, 3]> Conv_223_weight_to_fp16 = const()[name = tensor<string, []>("Conv_223_weight_to_fp16"), val = tensor<fp16, [512, 512, 3, 3]>(BLOBFILE(path = tensor<string, []>("@model_path/weights/weight.bin"), offset = tensor<uint64, []>(17094336)))];
            tensor<fp16, [512]> Conv_223_bias_to_fp16 = const()[name = tensor<string, []>("Conv_223_bias_to_fp16"), val = tensor<fp16, [512]>(BLOBFILE(path = tensor<string, []>("@model_path/weights/weight.bin"), offset = tensor<uint64, []>(21812992)))];
            tensor<fp16, [1, 512, 8, 8]> input_401_cast_fp16 = conv(bias = Conv_223_bias_to_fp16, dilations = input_401_dilations_0, groups = input_401_groups_0, pad = input_401_pad_0, pad_type = input_401_pad_type_0, strides = input_401_strides_0, weight = Conv_223_weight_to_fp16, x = input_399_cast_fp16)[name = tensor<string, []>("input_401_cast_fp16")];
            tensor<fp16, [1, 512, 8, 8]> input_403_cast_fp16 = relu(x = input_401_cast_fp16)[name = tensor<string, []>("input_403_cast_fp16")];
            tensor<string, []> first_37_pad_type_0 = const()[name = tensor<string, []>("first_37_pad_type_0"), val = tensor<string, []>("custom")];
            tensor<int32, [4]> first_37_pad_0 = const()[name = tensor<string, []>("first_37_pad_0"), val = tensor<int32, [4]>([1, 1, 1, 1])];
            tensor<int32, [2]> first_37_strides_0 = const()[name = tensor<string, []>("first_37_strides_0"), val = tensor<int32, [2]>([1, 1])];
            tensor<int32, [2]> first_37_dilations_0 = const()[name = tensor<string, []>("first_37_dilations_0"), val = tensor<int32, [2]>([1, 1])];
            tensor<int32, []> first_37_groups_0 = const()[name = tensor<string, []>("first_37_groups_0"), val = tensor<int32, []>(1)];
            tensor<fp16, [512, 512, 3, 3]> Conv_225_weight_to_fp16 = const()[name = tensor<string, []>("Conv_225_weight_to_fp16"), val = tensor<fp16, [512, 512, 3, 3]>(BLOBFILE(path = tensor<string, []>("@model_path/weights/weight.bin"), offset = tensor<uint64, []>(21814080)))];
            tensor<fp16, [512]> Conv_225_bias_to_fp16 = const()[name = tensor<string, []>("Conv_225_bias_to_fp16"), val = tensor<fp16, [512]>(BLOBFILE(path = tensor<string, []>("@model_path/weights/weight.bin"), offset = tensor<uint64, []>(26532736)))];
            tensor<fp16, [1, 512, 8, 8]> first_37_cast_fp16 = conv(bias = Conv_225_bias_to_fp16, dilations = first_37_dilations_0, groups = first_37_groups_0, pad = first_37_pad_0, pad_type = first_37_pad_type_0, strides = first_37_strides_0, weight = Conv_225_weight_to_fp16, x = input_403_cast_fp16)[name = tensor<string, []>("first_37_cast_fp16")];
            tensor<fp16, [1, 512, 8, 8]> input_405_cast_fp16 = add(x = first_37_cast_fp16, y = input_397_cast_fp16)[name = tensor<string, []>("input_405_cast_fp16")];
            tensor<fp32, []> input_407_scale_factor_height_0 = const()[name = tensor<string, []>("input_407_scale_factor_height_0"), val = tensor<fp32, []>(0x1p+1)];
            tensor<fp32, []> input_407_scale_factor_width_0 = const()[name = tensor<string, []>("input_407_scale_factor_width_0"), val = tensor<fp32, []>(0x1p+1)];
            tensor<bool, []> input_407_align_corners_0 = const()[name = tensor<string, []>("input_407_align_corners_0"), val = tensor<bool, []>(false)];
            tensor<fp16, [1, 512, 16, 16]> input_407_cast_fp16 = upsample_bilinear(align_corners = input_407_align_corners_0, scale_factor_height = input_407_scale_factor_height_0, scale_factor_width = input_407_scale_factor_width_0, x = input_405_cast_fp16)[name = tensor<string, []>("input_407_cast_fp16")];
            tensor<string, []> first_41_pad_type_0 = const()[name = tensor<string, []>("first_41_pad_type_0"), val = tensor<string, []>("valid")];
            tensor<int32, [2]> first_41_strides_0 = const()[name = tensor<string, []>("first_41_strides_0"), val = tensor<int32, [2]>([1, 1])];
            tensor<int32, [4]> first_41_pad_0 = const()[name = tensor<string, []>("first_41_pad_0"), val = tensor<int32, [4]>([0, 0, 0, 0])];
            tensor<int32, [2]> first_41_dilations_0 = const()[name = tensor<string, []>("first_41_dilations_0"), val = tensor<int32, [2]>([1, 1])];
            tensor<int32, []> first_41_groups_0 = const()[name = tensor<string, []>("first_41_groups_0"), val = tensor<int32, []>(1)];
            tensor<fp16, [256, 512, 1, 1]> Conv_228_weight_to_fp16 = const()[name = tensor<string, []>("Conv_228_weight_to_fp16"), val = tensor<fp16, [256, 512, 1, 1]>(BLOBFILE(path = tensor<string, []>("@model_path/weights/weight.bin"), offset = tensor<uint64, []>(26533824)))];
            tensor<fp16, [256]> Conv_228_bias_to_fp16 = const()[name = tensor<string, []>("Conv_228_bias_to_fp16"), val = tensor<fp16, [256]>(BLOBFILE(path = tensor<string, []>("@model_path/weights/weight.bin"), offset = tensor<uint64, []>(26796032)))];
            tensor<fp16, [1, 256, 16, 16]> first_41_cast_fp16 = conv(bias = Conv_228_bias_to_fp16, dilations = first_41_dilations_0, groups = first_41_groups_0, pad = first_41_pad_0, pad_type = first_41_pad_type_0, strides = first_41_strides_0, weight = Conv_228_weight_to_fp16, x = input_407_cast_fp16)[name = tensor<string, []>("first_41_cast_fp16")];
            tensor<fp16, [1, 256, 16, 16]> input_411_cast_fp16 = relu(x = input_409_cast_fp16)[name = tensor<string, []>("input_411_cast_fp16")];
            tensor<string, []> input_413_pad_type_0 = const()[name = tensor<string, []>("input_413_pad_type_0"), val = tensor<string, []>("custom")];
            tensor<int32, [4]> input_413_pad_0 = const()[name = tensor<string, []>("input_413_pad_0"), val = tensor<int32, [4]>([1, 1, 1, 1])];
            tensor<int32, [2]> input_413_strides_0 = const()[name = tensor<string, []>("input_413_strides_0"), val = tensor<int32, [2]>([1, 1])];
            tensor<int32, [2]> input_413_dilations_0 = const()[name = tensor<string, []>("input_413_dilations_0"), val = tensor<int32, [2]>([1, 1])];
            tensor<int32, []> input_413_groups_0 = const()[name = tensor<string, []>("input_413_groups_0"), val = tensor<int32, []>(1)];
            tensor<fp16, [256, 256, 3, 3]> Conv_230_weight_to_fp16 = const()[name = tensor<string, []>("Conv_230_weight_to_fp16"), val = tensor<fp16, [256, 256, 3, 3]>(BLOBFILE(path = tensor<string, []>("@model_path/weights/weight.bin"), offset = tensor<uint64, []>(26796608)))];
            tensor<fp16, [256]> Conv_230_bias_to_fp16 = const()[name = tensor<string, []>("Conv_230_bias_to_fp16"), val = tensor<fp16, [256]>(BLOBFILE(path = tensor<string, []>("@model_path/weights/weight.bin"), offset = tensor<uint64, []>(27976320)))];
            tensor<fp16, [1, 256, 16, 16]> input_413_cast_fp16 = conv(bias = Conv_230_bias_to_fp16, dilations = input_413_dilations_0, groups = input_413_groups_0, pad = input_413_pad_0, pad_type = input_413_pad_type_0, strides = input_413_strides_0, weight = Conv_230_weight_to_fp16, x = input_411_cast_fp16)[name = tensor<string, []>("input_413_cast_fp16")];
            tensor<fp16, [1, 256, 16, 16]> input_415_cast_fp16 = relu(x = input_413_cast_fp16)[name = tensor<string, []>("input_415_cast_fp16")];
            tensor<string, []> first_39_pad_type_0 = const()[name = tensor<string, []>("first_39_pad_type_0"), val = tensor<string, []>("custom")];
            tensor<int32, [4]> first_39_pad_0 = const()[name = tensor<string, []>("first_39_pad_0"), val = tensor<int32, [4]>([1, 1, 1, 1])];
            tensor<int32, [2]> first_39_strides_0 = const()[name = tensor<string, []>("first_39_strides_0"), val = tensor<int32, [2]>([1, 1])];
            tensor<int32, [2]> first_39_dilations_0 = const()[name = tensor<string, []>("first_39_dilations_0"), val = tensor<int32, [2]>([1, 1])];
            tensor<int32, []> first_39_groups_0 = const()[name = tensor<string, []>("first_39_groups_0"), val = tensor<int32, []>(1)];
            tensor<fp16, [256, 256, 3, 3]> Conv_232_weight_to_fp16 = const()[name = tensor<string, []>("Conv_232_weight_to_fp16"), val = tensor<fp16, [256, 256, 3, 3]>(BLOBFILE(path = tensor<string, []>("@model_path/weights/weight.bin"), offset = tensor<uint64, []>(27976896)))];
            tensor<fp16, [256]> Conv_232_bias_to_fp16 = const()[name = tensor<string, []>("Conv_232_bias_to_fp16"), val = tensor<fp16, [256]>(BLOBFILE(path = tensor<string, []>("@model_path/weights/weight.bin"), offset = tensor<uint64, []>(29156608)))];
            tensor<fp16, [1, 256, 16, 16]> first_39_cast_fp16 = conv(bias = Conv_232_bias_to_fp16, dilations = first_39_dilations_0, groups = first_39_groups_0, pad = first_39_pad_0, pad_type = first_39_pad_type_0, strides = first_39_strides_0, weight = Conv_232_weight_to_fp16, x = input_415_cast_fp16)[name = tensor<string, []>("first_39_cast_fp16")];
            tensor<fp16, [1, 256, 16, 16]> second_5_cast_fp16 = add(x = first_39_cast_fp16, y = input_409_cast_fp16)[name = tensor<string, []>("second_5_cast_fp16")];
            tensor<fp16, [1, 256, 16, 16]> input_417_cast_fp16 = add(x = first_41_cast_fp16, y = second_5_cast_fp16)[name = tensor<string, []>("input_417_cast_fp16")];
            tensor<fp16, [1, 256, 16, 16]> input_419_cast_fp16 = relu(x = input_417_cast_fp16)[name = tensor<string, []>("input_419_cast_fp16")];
            tensor<string, []> input_421_pad_type_0 = const()[name = tensor<string, []>("input_421_pad_type_0"), val = tensor<string, []>("custom")];
            tensor<int32, [4]> input_421_pad_0 = const()[name = tensor<string, []>("input_421_pad_0"), val = tensor<int32, [4]>([1, 1, 1, 1])];
            tensor<int32, [2]> input_421_strides_0 = const()[name = tensor<string, []>("input_421_strides_0"), val = tensor<int32, [2]>([1, 1])];
            tensor<int32, [2]> input_421_dilations_0 = const()[name = tensor<string, []>("input_421_dilations_0"), val = tensor<int32, [2]>([1, 1])];
            tensor<int32, []> input_421_groups_0 = const()[name = tensor<string, []>("input_421_groups_0"), val = tensor<int32, []>(1)];
            tensor<fp16, [256, 256, 3, 3]> Conv_236_weight_to_fp16 = const()[name = tensor<string, []>("Conv_236_weight_to_fp16"), val = tensor<fp16, [256, 256, 3, 3]>(BLOBFILE(path = tensor<string, []>("@model_path/weights/weight.bin"), offset = tensor<uint64, []>(29157184)))];
            tensor<fp16, [256]> Conv_236_bias_to_fp16 = const()[name = tensor<string, []>("Conv_236_bias_to_fp16"), val = tensor<fp16, [256]>(BLOBFILE(path = tensor<string, []>("@model_path/weights/weight.bin"), offset = tensor<uint64, []>(30336896)))];
            tensor<fp16, [1, 256, 16, 16]> input_421_cast_fp16 = conv(bias = Conv_236_bias_to_fp16, dilations = input_421_dilations_0, groups = input_421_groups_0, pad = input_421_pad_0, pad_type = input_421_pad_type_0, strides = input_421_strides_0, weight = Conv_236_weight_to_fp16, x = input_419_cast_fp16)[name = tensor<string, []>("input_421_cast_fp16")];
            tensor<fp16, [1, 256, 16, 16]> input_423_cast_fp16 = relu(x = input_421_cast_fp16)[name = tensor<string, []>("input_423_cast_fp16")];
            tensor<string, []> first_43_pad_type_0 = const()[name = tensor<string, []>("first_43_pad_type_0"), val = tensor<string, []>("custom")];
            tensor<int32, [4]> first_43_pad_0 = const()[name = tensor<string, []>("first_43_pad_0"), val = tensor<int32, [4]>([1, 1, 1, 1])];
            tensor<int32, [2]> first_43_strides_0 = const()[name = tensor<string, []>("first_43_strides_0"), val = tensor<int32, [2]>([1, 1])];
            tensor<int32, [2]> first_43_dilations_0 = const()[name = tensor<string, []>("first_43_dilations_0"), val = tensor<int32, [2]>([1, 1])];
            tensor<int32, []> first_43_groups_0 = const()[name = tensor<string, []>("first_43_groups_0"), val = tensor<int32, []>(1)];
            tensor<fp16, [256, 256, 3, 3]> Conv_238_weight_to_fp16 = const()[name = tensor<string, []>("Conv_238_weight_to_fp16"), val = tensor<fp16, [256, 256, 3, 3]>(BLOBFILE(path = tensor<string, []>("@model_path/weights/weight.bin"), offset = tensor<uint64, []>(30337472)))];
            tensor<fp16, [256]> Conv_238_bias_to_fp16 = const()[name = tensor<string, []>("Conv_238_bias_to_fp16"), val = tensor<fp16, [256]>(BLOBFILE(path = tensor<string, []>("@model_path/weights/weight.bin"), offset = tensor<uint64, []>(31517184)))];
            tensor<fp16, [1, 256, 16, 16]> first_43_cast_fp16 = conv(bias = Conv_238_bias_to_fp16, dilations = first_43_dilations_0, groups = first_43_groups_0, pad = first_43_pad_0, pad_type = first_43_pad_type_0, strides = first_43_strides_0, weight = Conv_238_weight_to_fp16, x = input_423_cast_fp16)[name = tensor<string, []>("first_43_cast_fp16")];
            tensor<fp16, [1, 256, 16, 16]> input_425_cast_fp16 = add(x = first_43_cast_fp16, y = input_417_cast_fp16)[name = tensor<string, []>("input_425_cast_fp16")];
            tensor<fp32, []> input_427_scale_factor_height_0 = const()[name = tensor<string, []>("input_427_scale_factor_height_0"), val = tensor<fp32, []>(0x1p+1)];
            tensor<fp32, []> input_427_scale_factor_width_0 = const()[name = tensor<string, []>("input_427_scale_factor_width_0"), val = tensor<fp32, []>(0x1p+1)];
            tensor<bool, []> input_427_align_corners_0 = const()[name = tensor<string, []>("input_427_align_corners_0"), val = tensor<bool, []>(false)];
            tensor<fp16, [1, 256, 32, 32]> input_427_cast_fp16 = upsample_bilinear(align_corners = input_427_align_corners_0, scale_factor_height = input_427_scale_factor_height_0, scale_factor_width = input_427_scale_factor_width_0, x = input_425_cast_fp16)[name = tensor<string, []>("input_427_cast_fp16")];
            tensor<string, []> first_47_pad_type_0 = const()[name = tensor<string, []>("first_47_pad_type_0"), val = tensor<string, []>("valid")];
            tensor<int32, [2]> first_47_strides_0 = const()[name = tensor<string, []>("first_47_strides_0"), val = tensor<int32, [2]>([1, 1])];
            tensor<int32, [4]> first_47_pad_0 = const()[name = tensor<string, []>("first_47_pad_0"), val = tensor<int32, [4]>([0, 0, 0, 0])];
            tensor<int32, [2]> first_47_dilations_0 = const()[name = tensor<string, []>("first_47_dilations_0"), val = tensor<int32, [2]>([1, 1])];
            tensor<int32, []> first_47_groups_0 = const()[name = tensor<string, []>("first_47_groups_0"), val = tensor<int32, []>(1)];
            tensor<fp16, [128, 256, 1, 1]> Conv_241_weight_to_fp16 = const()[name = tensor<string, []>("Conv_241_weight_to_fp16"), val = tensor<fp16, [128, 256, 1, 1]>(BLOBFILE(path = tensor<string, []>("@model_path/weights/weight.bin"), offset = tensor<uint64, []>(31517760)))];
            tensor<fp16, [128]> Conv_241_bias_to_fp16 = const()[name = tensor<string, []>("Conv_241_bias_to_fp16"), val = tensor<fp16, [128]>(BLOBFILE(path = tensor<string, []>("@model_path/weights/weight.bin"), offset = tensor<uint64, []>(31583360)))];
            tensor<fp16, [1, 128, 32, 32]> first_47_cast_fp16 = conv(bias = Conv_241_bias_to_fp16, dilations = first_47_dilations_0, groups = first_47_groups_0, pad = first_47_pad_0, pad_type = first_47_pad_type_0, strides = first_47_strides_0, weight = Conv_241_weight_to_fp16, x = input_427_cast_fp16)[name = tensor<string, []>("first_47_cast_fp16")];
            tensor<fp16, [1, 128, 32, 32]> input_431_cast_fp16 = relu(x = input_429_cast_fp16)[name = tensor<string, []>("input_431_cast_fp16")];
            tensor<string, []> input_433_pad_type_0 = const()[name = tensor<string, []>("input_433_pad_type_0"), val = tensor<string, []>("custom")];
            tensor<int32, [4]> input_433_pad_0 = const()[name = tensor<string, []>("input_433_pad_0"), val = tensor<int32, [4]>([1, 1, 1, 1])];
            tensor<int32, [2]> input_433_strides_0 = const()[name = tensor<string, []>("input_433_strides_0"), val = tensor<int32, [2]>([1, 1])];
            tensor<int32, [2]> input_433_dilations_0 = const()[name = tensor<string, []>("input_433_dilations_0"), val = tensor<int32, [2]>([1, 1])];
            tensor<int32, []> input_433_groups_0 = const()[name = tensor<string, []>("input_433_groups_0"), val = tensor<int32, []>(1)];
            tensor<fp16, [128, 128, 3, 3]> Conv_243_weight_to_fp16 = const()[name = tensor<string, []>("Conv_243_weight_to_fp16"), val = tensor<fp16, [128, 128, 3, 3]>(BLOBFILE(path = tensor<string, []>("@model_path/weights/weight.bin"), offset = tensor<uint64, []>(31583680)))];
            tensor<fp16, [128]> Conv_243_bias_to_fp16 = const()[name = tensor<string, []>("Conv_243_bias_to_fp16"), val = tensor<fp16, [128]>(BLOBFILE(path = tensor<string, []>("@model_path/weights/weight.bin"), offset = tensor<uint64, []>(31878656)))];
            tensor<fp16, [1, 128, 32, 32]> input_433_cast_fp16 = conv(bias = Conv_243_bias_to_fp16, dilations = input_433_dilations_0, groups = input_433_groups_0, pad = input_433_pad_0, pad_type = input_433_pad_type_0, strides = input_433_strides_0, weight = Conv_243_weight_to_fp16, x = input_431_cast_fp16)[name = tensor<string, []>("input_433_cast_fp16")];
            tensor<fp16, [1, 128, 32, 32]> input_435_cast_fp16 = relu(x = input_433_cast_fp16)[name = tensor<string, []>("input_435_cast_fp16")];
            tensor<string, []> first_45_pad_type_0 = const()[name = tensor<string, []>("first_45_pad_type_0"), val = tensor<string, []>("custom")];
            tensor<int32, [4]> first_45_pad_0 = const()[name = tensor<string, []>("first_45_pad_0"), val = tensor<int32, [4]>([1, 1, 1, 1])];
            tensor<int32, [2]> first_45_strides_0 = const()[name = tensor<string, []>("first_45_strides_0"), val = tensor<int32, [2]>([1, 1])];
            tensor<int32, [2]> first_45_dilations_0 = const()[name = tensor<string, []>("first_45_dilations_0"), val = tensor<int32, [2]>([1, 1])];
            tensor<int32, []> first_45_groups_0 = const()[name = tensor<string, []>("first_45_groups_0"), val = tensor<int32, []>(1)];
            tensor<fp16, [128, 128, 3, 3]> Conv_245_weight_to_fp16 = const()[name = tensor<string, []>("Conv_245_weight_to_fp16"), val = tensor<fp16, [128, 128, 3, 3]>(BLOBFILE(path = tensor<string, []>("@model_path/weights/weight.bin"), offset = tensor<uint64, []>(31878976)))];
            tensor<fp16, [128]> Conv_245_bias_to_fp16 = const()[name = tensor<string, []>("Conv_245_bias_to_fp16"), val = tensor<fp16, [128]>(BLOBFILE(path = tensor<string, []>("@model_path/weights/weight.bin"), offset = tensor<uint64, []>(32173952)))];
            tensor<fp16, [1, 128, 32, 32]> first_45_cast_fp16 = conv(bias = Conv_245_bias_to_fp16, dilations = first_45_dilations_0, groups = first_45_groups_0, pad = first_45_pad_0, pad_type = first_45_pad_type_0, strides = first_45_strides_0, weight = Conv_245_weight_to_fp16, x = input_435_cast_fp16)[name = tensor<string, []>("first_45_cast_fp16")];
            tensor<fp16, [1, 128, 32, 32]> second_7_cast_fp16 = add(x = first_45_cast_fp16, y = input_429_cast_fp16)[name = tensor<string, []>("second_7_cast_fp16")];
            tensor<fp16, [1, 128, 32, 32]> input_437_cast_fp16 = add(x = first_47_cast_fp16, y = second_7_cast_fp16)[name = tensor<string, []>("input_437_cast_fp16")];
            tensor<fp16, [1, 128, 32, 32]> input_439_cast_fp16 = relu(x = input_437_cast_fp16)[name = tensor<string, []>("input_439_cast_fp16")];
            tensor<string, []> input_441_pad_type_0 = const()[name = tensor<string, []>("input_441_pad_type_0"), val = tensor<string, []>("custom")];
            tensor<int32, [4]> input_441_pad_0 = const()[name = tensor<string, []>("input_441_pad_0"), val = tensor<int32, [4]>([1, 1, 1, 1])];
            tensor<int32, [2]> input_441_strides_0 = const()[name = tensor<string, []>("input_441_strides_0"), val = tensor<int32, [2]>([1, 1])];
            tensor<int32, [2]> input_441_dilations_0 = const()[name = tensor<string, []>("input_441_dilations_0"), val = tensor<int32, [2]>([1, 1])];
            tensor<int32, []> input_441_groups_0 = const()[name = tensor<string, []>("input_441_groups_0"), val = tensor<int32, []>(1)];
            tensor<fp16, [128, 128, 3, 3]> Conv_249_weight_to_fp16 = const()[name = tensor<string, []>("Conv_249_weight_to_fp16"), val = tensor<fp16, [128, 128, 3, 3]>(BLOBFILE(path = tensor<string, []>("@model_path/weights/weight.bin"), offset = tensor<uint64, []>(32174272)))];
            tensor<fp16, [128]> Conv_249_bias_to_fp16 = const()[name = tensor<string, []>("Conv_249_bias_to_fp16"), val = tensor<fp16, [128]>(BLOBFILE(path = tensor<string, []>("@model_path/weights/weight.bin"), offset = tensor<uint64, []>(32469248)))];
            tensor<fp16, [1, 128, 32, 32]> input_441_cast_fp16 = conv(bias = Conv_249_bias_to_fp16, dilations = input_441_dilations_0, groups = input_441_groups_0, pad = input_441_pad_0, pad_type = input_441_pad_type_0, strides = input_441_strides_0, weight = Conv_249_weight_to_fp16, x = input_439_cast_fp16)[name = tensor<string, []>("input_441_cast_fp16")];
            tensor<fp16, [1, 128, 32, 32]> input_443_cast_fp16 = relu(x = input_441_cast_fp16)[name = tensor<string, []>("input_443_cast_fp16")];
            tensor<string, []> first_49_pad_type_0 = const()[name = tensor<string, []>("first_49_pad_type_0"), val = tensor<string, []>("custom")];
            tensor<int32, [4]> first_49_pad_0 = const()[name = tensor<string, []>("first_49_pad_0"), val = tensor<int32, [4]>([1, 1, 1, 1])];
            tensor<int32, [2]> first_49_strides_0 = const()[name = tensor<string, []>("first_49_strides_0"), val = tensor<int32, [2]>([1, 1])];
            tensor<int32, [2]> first_49_dilations_0 = const()[name = tensor<string, []>("first_49_dilations_0"), val = tensor<int32, [2]>([1, 1])];
            tensor<int32, []> first_49_groups_0 = const()[name = tensor<string, []>("first_49_groups_0"), val = tensor<int32, []>(1)];
            tensor<fp16, [128, 128, 3, 3]> Conv_251_weight_to_fp16 = const()[name = tensor<string, []>("Conv_251_weight_to_fp16"), val = tensor<fp16, [128, 128, 3, 3]>(BLOBFILE(path = tensor<string, []>("@model_path/weights/weight.bin"), offset = tensor<uint64, []>(32469568)))];
            tensor<fp16, [128]> Conv_251_bias_to_fp16 = const()[name = tensor<string, []>("Conv_251_bias_to_fp16"), val = tensor<fp16, [128]>(BLOBFILE(path = tensor<string, []>("@model_path/weights/weight.bin"), offset = tensor<uint64, []>(32764544)))];
            tensor<fp16, [1, 128, 32, 32]> first_49_cast_fp16 = conv(bias = Conv_251_bias_to_fp16, dilations = first_49_dilations_0, groups = first_49_groups_0, pad = first_49_pad_0, pad_type = first_49_pad_type_0, strides = first_49_strides_0, weight = Conv_251_weight_to_fp16, x = input_443_cast_fp16)[name = tensor<string, []>("first_49_cast_fp16")];
            tensor<fp16, [1, 128, 32, 32]> input_445_cast_fp16 = add(x = first_49_cast_fp16, y = input_437_cast_fp16)[name = tensor<string, []>("input_445_cast_fp16")];
            tensor<fp32, []> input_447_scale_factor_height_0 = const()[name = tensor<string, []>("input_447_scale_factor_height_0"), val = tensor<fp32, []>(0x1p+1)];
            tensor<fp32, []> input_447_scale_factor_width_0 = const()[name = tensor<string, []>("input_447_scale_factor_width_0"), val = tensor<fp32, []>(0x1p+1)];
            tensor<bool, []> input_447_align_corners_0 = const()[name = tensor<string, []>("input_447_align_corners_0"), val = tensor<bool, []>(false)];
            tensor<fp16, [1, 128, 64, 64]> input_447_cast_fp16 = upsample_bilinear(align_corners = input_447_align_corners_0, scale_factor_height = input_447_scale_factor_height_0, scale_factor_width = input_447_scale_factor_width_0, x = input_445_cast_fp16)[name = tensor<string, []>("input_447_cast_fp16")];
            tensor<string, []> first_53_pad_type_0 = const()[name = tensor<string, []>("first_53_pad_type_0"), val = tensor<string, []>("valid")];
            tensor<int32, [2]> first_53_strides_0 = const()[name = tensor<string, []>("first_53_strides_0"), val = tensor<int32, [2]>([1, 1])];
            tensor<int32, [4]> first_53_pad_0 = const()[name = tensor<string, []>("first_53_pad_0"), val = tensor<int32, [4]>([0, 0, 0, 0])];
            tensor<int32, [2]> first_53_dilations_0 = const()[name = tensor<string, []>("first_53_dilations_0"), val = tensor<int32, [2]>([1, 1])];
            tensor<int32, []> first_53_groups_0 = const()[name = tensor<string, []>("first_53_groups_0"), val = tensor<int32, []>(1)];
            tensor<fp16, [64, 128, 1, 1]> Conv_254_weight_to_fp16 = const()[name = tensor<string, []>("Conv_254_weight_to_fp16"), val = tensor<fp16, [64, 128, 1, 1]>(BLOBFILE(path = tensor<string, []>("@model_path/weights/weight.bin"), offset = tensor<uint64, []>(32764864)))];
            tensor<fp16, [64]> Conv_254_bias_to_fp16 = const()[name = tensor<string, []>("Conv_254_bias_to_fp16"), val = tensor<fp16, [64]>(BLOBFILE(path = tensor<string, []>("@model_path/weights/weight.bin"), offset = tensor<uint64, []>(32781312)))];
            tensor<fp16, [1, 64, 64, 64]> first_53_cast_fp16 = conv(bias = Conv_254_bias_to_fp16, dilations = first_53_dilations_0, groups = first_53_groups_0, pad = first_53_pad_0, pad_type = first_53_pad_type_0, strides = first_53_strides_0, weight = Conv_254_weight_to_fp16, x = input_447_cast_fp16)[name = tensor<string, []>("first_53_cast_fp16")];
            tensor<fp16, [1, 64, 64, 64]> input_451_cast_fp16 = relu(x = input_449_cast_fp16)[name = tensor<string, []>("input_451_cast_fp16")];
            tensor<string, []> input_453_pad_type_0 = const()[name = tensor<string, []>("input_453_pad_type_0"), val = tensor<string, []>("custom")];
            tensor<int32, [4]> input_453_pad_0 = const()[name = tensor<string, []>("input_453_pad_0"), val = tensor<int32, [4]>([1, 1, 1, 1])];
            tensor<int32, [2]> input_453_strides_0 = const()[name = tensor<string, []>("input_453_strides_0"), val = tensor<int32, [2]>([1, 1])];
            tensor<int32, [2]> input_453_dilations_0 = const()[name = tensor<string, []>("input_453_dilations_0"), val = tensor<int32, [2]>([1, 1])];
            tensor<int32, []> input_453_groups_0 = const()[name = tensor<string, []>("input_453_groups_0"), val = tensor<int32, []>(1)];
            tensor<fp16, [64, 64, 3, 3]> Conv_256_weight_to_fp16 = const()[name = tensor<string, []>("Conv_256_weight_to_fp16"), val = tensor<fp16, [64, 64, 3, 3]>(BLOBFILE(path = tensor<string, []>("@model_path/weights/weight.bin"), offset = tensor<uint64, []>(32781504)))];
            tensor<fp16, [64]> Conv_256_bias_to_fp16 = const()[name = tensor<string, []>("Conv_256_bias_to_fp16"), val = tensor<fp16, [64]>(BLOBFILE(path = tensor<string, []>("@model_path/weights/weight.bin"), offset = tensor<uint64, []>(32855296)))];
            tensor<fp16, [1, 64, 64, 64]> input_453_cast_fp16 = conv(bias = Conv_256_bias_to_fp16, dilations = input_453_dilations_0, groups = input_453_groups_0, pad = input_453_pad_0, pad_type = input_453_pad_type_0, strides = input_453_strides_0, weight = Conv_256_weight_to_fp16, x = input_451_cast_fp16)[name = tensor<string, []>("input_453_cast_fp16")];
            tensor<fp16, [1, 64, 64, 64]> input_455_cast_fp16 = relu(x = input_453_cast_fp16)[name = tensor<string, []>("input_455_cast_fp16")];
            tensor<string, []> first_51_pad_type_0 = const()[name = tensor<string, []>("first_51_pad_type_0"), val = tensor<string, []>("custom")];
            tensor<int32, [4]> first_51_pad_0 = const()[name = tensor<string, []>("first_51_pad_0"), val = tensor<int32, [4]>([1, 1, 1, 1])];
            tensor<int32, [2]> first_51_strides_0 = const()[name = tensor<string, []>("first_51_strides_0"), val = tensor<int32, [2]>([1, 1])];
            tensor<int32, [2]> first_51_dilations_0 = const()[name = tensor<string, []>("first_51_dilations_0"), val = tensor<int32, [2]>([1, 1])];
            tensor<int32, []> first_51_groups_0 = const()[name = tensor<string, []>("first_51_groups_0"), val = tensor<int32, []>(1)];
            tensor<fp16, [64, 64, 3, 3]> Conv_258_weight_to_fp16 = const()[name = tensor<string, []>("Conv_258_weight_to_fp16"), val = tensor<fp16, [64, 64, 3, 3]>(BLOBFILE(path = tensor<string, []>("@model_path/weights/weight.bin"), offset = tensor<uint64, []>(32855488)))];
            tensor<fp16, [64]> Conv_258_bias_to_fp16 = const()[name = tensor<string, []>("Conv_258_bias_to_fp16"), val = tensor<fp16, [64]>(BLOBFILE(path = tensor<string, []>("@model_path/weights/weight.bin"), offset = tensor<uint64, []>(32929280)))];
            tensor<fp16, [1, 64, 64, 64]> first_51_cast_fp16 = conv(bias = Conv_258_bias_to_fp16, dilations = first_51_dilations_0, groups = first_51_groups_0, pad = first_51_pad_0, pad_type = first_51_pad_type_0, strides = first_51_strides_0, weight = Conv_258_weight_to_fp16, x = input_455_cast_fp16)[name = tensor<string, []>("first_51_cast_fp16")];
            tensor<fp16, [1, 64, 64, 64]> second_cast_fp16 = add(x = first_51_cast_fp16, y = input_449_cast_fp16)[name = tensor<string, []>("second_cast_fp16")];
            tensor<fp16, [1, 64, 64, 64]> input_457_cast_fp16 = add(x = first_53_cast_fp16, y = second_cast_fp16)[name = tensor<string, []>("input_457_cast_fp16")];
            tensor<fp16, [1, 64, 64, 64]> input_459_cast_fp16 = relu(x = input_457_cast_fp16)[name = tensor<string, []>("input_459_cast_fp16")];
            tensor<string, []> input_461_pad_type_0 = const()[name = tensor<string, []>("input_461_pad_type_0"), val = tensor<string, []>("custom")];
            tensor<int32, [4]> input_461_pad_0 = const()[name = tensor<string, []>("input_461_pad_0"), val = tensor<int32, [4]>([1, 1, 1, 1])];
            tensor<int32, [2]> input_461_strides_0 = const()[name = tensor<string, []>("input_461_strides_0"), val = tensor<int32, [2]>([1, 1])];
            tensor<int32, [2]> input_461_dilations_0 = const()[name = tensor<string, []>("input_461_dilations_0"), val = tensor<int32, [2]>([1, 1])];
            tensor<int32, []> input_461_groups_0 = const()[name = tensor<string, []>("input_461_groups_0"), val = tensor<int32, []>(1)];
            tensor<fp16, [64, 64, 3, 3]> Conv_262_weight_to_fp16 = const()[name = tensor<string, []>("Conv_262_weight_to_fp16"), val = tensor<fp16, [64, 64, 3, 3]>(BLOBFILE(path = tensor<string, []>("@model_path/weights/weight.bin"), offset = tensor<uint64, []>(32929472)))];
            tensor<fp16, [64]> Conv_262_bias_to_fp16 = const()[name = tensor<string, []>("Conv_262_bias_to_fp16"), val = tensor<fp16, [64]>(BLOBFILE(path = tensor<string, []>("@model_path/weights/weight.bin"), offset = tensor<uint64, []>(33003264)))];
            tensor<fp16, [1, 64, 64, 64]> input_461_cast_fp16 = conv(bias = Conv_262_bias_to_fp16, dilations = input_461_dilations_0, groups = input_461_groups_0, pad = input_461_pad_0, pad_type = input_461_pad_type_0, strides = input_461_strides_0, weight = Conv_262_weight_to_fp16, x = input_459_cast_fp16)[name = tensor<string, []>("input_461_cast_fp16")];
            tensor<fp16, [1, 64, 64, 64]> input_463_cast_fp16 = relu(x = input_461_cast_fp16)[name = tensor<string, []>("input_463_cast_fp16")];
            tensor<string, []> first_pad_type_0 = const()[name = tensor<string, []>("first_pad_type_0"), val = tensor<string, []>("custom")];
            tensor<int32, [4]> first_pad_0 = const()[name = tensor<string, []>("first_pad_0"), val = tensor<int32, [4]>([1, 1, 1, 1])];
            tensor<int32, [2]> first_strides_0 = const()[name = tensor<string, []>("first_strides_0"), val = tensor<int32, [2]>([1, 1])];
            tensor<int32, [2]> first_dilations_0 = const()[name = tensor<string, []>("first_dilations_0"), val = tensor<int32, [2]>([1, 1])];
            tensor<int32, []> first_groups_0 = const()[name = tensor<string, []>("first_groups_0"), val = tensor<int32, []>(1)];
            tensor<fp16, [64, 64, 3, 3]> Conv_264_weight_to_fp16 = const()[name = tensor<string, []>("Conv_264_weight_to_fp16"), val = tensor<fp16, [64, 64, 3, 3]>(BLOBFILE(path = tensor<string, []>("@model_path/weights/weight.bin"), offset = tensor<uint64, []>(33003456)))];
            tensor<fp16, [64]> Conv_264_bias_to_fp16 = const()[name = tensor<string, []>("Conv_264_bias_to_fp16"), val = tensor<fp16, [64]>(BLOBFILE(path = tensor<string, []>("@model_path/weights/weight.bin"), offset = tensor<uint64, []>(33077248)))];
            tensor<fp16, [1, 64, 64, 64]> first_cast_fp16 = conv(bias = Conv_264_bias_to_fp16, dilations = first_dilations_0, groups = first_groups_0, pad = first_pad_0, pad_type = first_pad_type_0, strides = first_strides_0, weight = Conv_264_weight_to_fp16, x = input_463_cast_fp16)[name = tensor<string, []>("first_cast_fp16")];
            tensor<fp16, [1, 64, 64, 64]> input_465_cast_fp16 = add(x = first_cast_fp16, y = input_457_cast_fp16)[name = tensor<string, []>("input_465_cast_fp16")];
            tensor<fp32, []> input_467_scale_factor_height_0 = const()[name = tensor<string, []>("input_467_scale_factor_height_0"), val = tensor<fp32, []>(0x1p+1)];
            tensor<fp32, []> input_467_scale_factor_width_0 = const()[name = tensor<string, []>("input_467_scale_factor_width_0"), val = tensor<fp32, []>(0x1p+1)];
            tensor<bool, []> input_467_align_corners_0 = const()[name = tensor<string, []>("input_467_align_corners_0"), val = tensor<bool, []>(false)];
            tensor<fp16, [1, 64, 128, 128]> input_467_cast_fp16 = upsample_bilinear(align_corners = input_467_align_corners_0, scale_factor_height = input_467_scale_factor_height_0, scale_factor_width = input_467_scale_factor_width_0, x = input_465_cast_fp16)[name = tensor<string, []>("input_467_cast_fp16")];
            tensor<string, []> input_469_pad_type_0 = const()[name = tensor<string, []>("input_469_pad_type_0"), val = tensor<string, []>("valid")];
            tensor<int32, [2]> input_469_strides_0 = const()[name = tensor<string, []>("input_469_strides_0"), val = tensor<int32, [2]>([1, 1])];
            tensor<int32, [4]> input_469_pad_0 = const()[name = tensor<string, []>("input_469_pad_0"), val = tensor<int32, [4]>([0, 0, 0, 0])];
            tensor<int32, [2]> input_469_dilations_0 = const()[name = tensor<string, []>("input_469_dilations_0"), val = tensor<int32, [2]>([1, 1])];
            tensor<int32, []> input_469_groups_0 = const()[name = tensor<string, []>("input_469_groups_0"), val = tensor<int32, []>(1)];
            tensor<fp16, [64, 64, 1, 1]> Conv_267_weight_to_fp16 = const()[name = tensor<string, []>("Conv_267_weight_to_fp16"), val = tensor<fp16, [64, 64, 1, 1]>(BLOBFILE(path = tensor<string, []>("@model_path/weights/weight.bin"), offset = tensor<uint64, []>(33077440)))];
            tensor<fp16, [64]> Conv_267_bias_to_fp16 = const()[name = tensor<string, []>("Conv_267_bias_to_fp16"), val = tensor<fp16, [64]>(BLOBFILE(path = tensor<string, []>("@model_path/weights/weight.bin"), offset = tensor<uint64, []>(33085696)))];
            tensor<fp16, [1, 64, 128, 128]> input_469_cast_fp16 = conv(bias = Conv_267_bias_to_fp16, dilations = input_469_dilations_0, groups = input_469_groups_0, pad = input_469_pad_0, pad_type = input_469_pad_type_0, strides = input_469_strides_0, weight = Conv_267_weight_to_fp16, x = input_467_cast_fp16)[name = tensor<string, []>("input_469_cast_fp16")];
            tensor<string, []> input_471_pad_type_0 = const()[name = tensor<string, []>("input_471_pad_type_0"), val = tensor<string, []>("custom")];
            tensor<int32, [4]> input_471_pad_0 = const()[name = tensor<string, []>("input_471_pad_0"), val = tensor<int32, [4]>([1, 1, 1, 1])];
            tensor<int32, [2]> input_471_strides_0 = const()[name = tensor<string, []>("input_471_strides_0"), val = tensor<int32, [2]>([1, 1])];
            tensor<int32, [2]> input_471_dilations_0 = const()[name = tensor<string, []>("input_471_dilations_0"), val = tensor<int32, [2]>([1, 1])];
            tensor<int32, []> input_471_groups_0 = const()[name = tensor<string, []>("input_471_groups_0"), val = tensor<int32, []>(1)];
            tensor<fp16, [32, 64, 3, 3]> Conv_268_weight_to_fp16 = const()[name = tensor<string, []>("Conv_268_weight_to_fp16"), val = tensor<fp16, [32, 64, 3, 3]>(BLOBFILE(path = tensor<string, []>("@model_path/weights/weight.bin"), offset = tensor<uint64, []>(33085888)))];
            tensor<fp16, [32]> Conv_268_bias_to_fp16 = const()[name = tensor<string, []>("Conv_268_bias_to_fp16"), val = tensor<fp16, [32]>(BLOBFILE(path = tensor<string, []>("@model_path/weights/weight.bin"), offset = tensor<uint64, []>(33122816)))];
            tensor<fp16, [1, 32, 128, 128]> input_471_cast_fp16 = conv(bias = Conv_268_bias_to_fp16, dilations = input_471_dilations_0, groups = input_471_groups_0, pad = input_471_pad_0, pad_type = input_471_pad_type_0, strides = input_471_strides_0, weight = Conv_268_weight_to_fp16, x = input_469_cast_fp16)[name = tensor<string, []>("input_471_cast_fp16")];
            tensor<fp32, []> input_473_scale_factor_height_0 = const()[name = tensor<string, []>("input_473_scale_factor_height_0"), val = tensor<fp32, []>(0x1p+1)];
            tensor<fp32, []> input_473_scale_factor_width_0 = const()[name = tensor<string, []>("input_473_scale_factor_width_0"), val = tensor<fp32, []>(0x1p+1)];
            tensor<bool, []> input_473_align_corners_0 = const()[name = tensor<string, []>("input_473_align_corners_0"), val = tensor<bool, []>(false)];
            tensor<fp16, [1, 32, 256, 256]> input_473_cast_fp16 = upsample_bilinear(align_corners = input_473_align_corners_0, scale_factor_height = input_473_scale_factor_height_0, scale_factor_width = input_473_scale_factor_width_0, x = input_471_cast_fp16)[name = tensor<string, []>("input_473_cast_fp16")];
            tensor<string, []> input_475_pad_type_0 = const()[name = tensor<string, []>("input_475_pad_type_0"), val = tensor<string, []>("custom")];
            tensor<int32, [4]> input_475_pad_0 = const()[name = tensor<string, []>("input_475_pad_0"), val = tensor<int32, [4]>([1, 1, 1, 1])];
            tensor<int32, [2]> input_475_strides_0 = const()[name = tensor<string, []>("input_475_strides_0"), val = tensor<int32, [2]>([1, 1])];
            tensor<int32, [2]> input_475_dilations_0 = const()[name = tensor<string, []>("input_475_dilations_0"), val = tensor<int32, [2]>([1, 1])];
            tensor<int32, []> input_475_groups_0 = const()[name = tensor<string, []>("input_475_groups_0"), val = tensor<int32, []>(1)];
            tensor<fp16, [32, 32, 3, 3]> Conv_270_weight_to_fp16 = const()[name = tensor<string, []>("Conv_270_weight_to_fp16"), val = tensor<fp16, [32, 32, 3, 3]>(BLOBFILE(path = tensor<string, []>("@model_path/weights/weight.bin"), offset = tensor<uint64, []>(33122944)))];
            tensor<fp16, [32]> Conv_270_bias_to_fp16 = const()[name = tensor<string, []>("Conv_270_bias_to_fp16"), val = tensor<fp16, [32]>(BLOBFILE(path = tensor<string, []>("@model_path/weights/weight.bin"), offset = tensor<uint64, []>(33141440)))];
            tensor<fp16, [1, 32, 256, 256]> input_475_cast_fp16 = conv(bias = Conv_270_bias_to_fp16, dilations = input_475_dilations_0, groups = input_475_groups_0, pad = input_475_pad_0, pad_type = input_475_pad_type_0, strides = input_475_strides_0, weight = Conv_270_weight_to_fp16, x = input_473_cast_fp16)[name = tensor<string, []>("input_475_cast_fp16")];
            tensor<fp16, [1, 32, 256, 256]> input_477_cast_fp16 = relu(x = input_475_cast_fp16)[name = tensor<string, []>("input_477_cast_fp16")];
            tensor<string, []> input_pad_type_0 = const()[name = tensor<string, []>("input_pad_type_0"), val = tensor<string, []>("valid")];
            tensor<int32, [2]> input_strides_0 = const()[name = tensor<string, []>("input_strides_0"), val = tensor<int32, [2]>([1, 1])];
            tensor<int32, [4]> input_pad_0 = const()[name = tensor<string, []>("input_pad_0"), val = tensor<int32, [4]>([0, 0, 0, 0])];
            tensor<int32, [2]> input_dilations_0 = const()[name = tensor<string, []>("input_dilations_0"), val = tensor<int32, [2]>([1, 1])];
            tensor<int32, []> input_groups_0 = const()[name = tensor<string, []>("input_groups_0"), val = tensor<int32, []>(1)];
            tensor<fp16, [1, 32, 1, 1]> Conv_272_weight_to_fp16 = const()[name = tensor<string, []>("Conv_272_weight_to_fp16"), val = tensor<fp16, [1, 32, 1, 1]>(BLOBFILE(path = tensor<string, []>("@model_path/weights/weight.bin"), offset = tensor<uint64, []>(33141568)))];
            tensor<fp16, [1]> Conv_272_bias_to_fp16 = const()[name = tensor<string, []>("Conv_272_bias_to_fp16"), val = tensor<fp16, [1]>([0x1.2b8p-1])];
            tensor<fp16, [1, 1, 256, 256]> input_cast_fp16 = conv(bias = Conv_272_bias_to_fp16, dilations = input_dilations_0, groups = input_groups_0, pad = input_pad_0, pad_type = input_pad_type_0, strides = input_strides_0, weight = Conv_272_weight_to_fp16, x = input_477_cast_fp16)[name = tensor<string, []>("input_cast_fp16")];
            tensor<fp16, [1, 1, 256, 256]> result_cast_fp16 = relu(x = input_cast_fp16)[name = tensor<string, []>("result_cast_fp16")];
            tensor<int32, [1]> var_2206_axes_0 = const()[name = tensor<string, []>("op_2206_axes_0"), val = tensor<int32, [1]>([1])];
            tensor<fp16, [1, 256, 256]> var_2206 = squeeze(axes = var_2206_axes_0, x = result_cast_fp16)[name = tensor<string, []>("op_2206_cast_fp16")];
        } -> (var_2206);
}